backend/marketValuemodel/market_value_predictor.pth (torch, 124970 bytes, 15 tensors)

model.0.weight f4 [222, 39]
-0.26641634 0.012805395 -0.061728477 -0.09691349 0.035448935 0.059980538 0.0479873 0.07112943
0.22710511 -0.09270292 0.017369136 0.06729936 0.082934335 -0.20374948 -0.035228815 -0.17340213
-0.047257267 0.0638391 -0.04904893 -0.02038585 0.14602317 0.0045297807 -0.00036542947 0.1316511
-0.09252 0.0067005064 -0.061555076 0.09041973 0.018432552 -0.12360707 0.05005331 -0.055301264
0.05943368 -0.06901943 0.030897548 0.1031056 -0.00036454137 0.009476199 0.07115443 -0.06397282
-0.044630762 -0.015172953 0.07445923 -0.13635798 -0.18106812 -0.044051997 0.12346937 0.028956845
0.05839451 -0.028756833 -0.06010473 -0.13447018 0.14357339 -0.14322762 -0.1487441 -0.03482401
-0.116290905 0.09154138 -0.03784141 -0.015193589 0.060496554 -0.119798094 0.096469425 -0.11111166
0.14282554 0.022286799 0.0062908013 -0.009087815 -0.12737276 0.12224899 0.038916342 0.023670765
0.09670963 -0.048426334 0.03844849 -0.080079585 -0.15450993 0.09147518 0.010350686 -0.07199633
-0.14359626 0.033914577 -0.112873964 0.0311943 -0.03805503 -0.1498638 0.09210818 -0.07640422
0.13111715 -0.11859283 0.1591634 -0.045237765 -0.13030985 -0.04692464 -0.09513499 0.08887085
-0.1466308 -0.12228782 -0.16198394 0.030361108 -0.011347945 -0.09822052 0.098630145 -0.035666246
-0.05373823 -0.08363028 -0.098628856 0.086475596 0.058977965 0.0092630265 -0.1210705 -0.05984423
0.12581293 0.017354626 -0.14515695 -0.039127443 0.07626716 0.23585314 0.09833776 -0.05113107
-0.016532194 -0.083978355 0.07454009 -0.0031658167 -0.040840432 0.07564708 -0.032404553 0.13542324
-0.018065857 -0.045419537 0.034363136 -0.018790694 0.057095964 0.105539255 0.008627686 0.14871265
0.0054232837 0.1239188 0.17443989 0.06669747 -0.08863468 -0.12792143 0.1337523 0.037974168
-0.17166181 -0.038358316 0.162604 -0.0013985678 -0.19896588 0.18062708 -0.15009049 -0.10411896
0.13587216 0.059134662 -0.07913275 -0.050373986 0.0013096373 0.17216085 0.13512488 0.14511125
0.07628367 -0.10386989 -0.04671655 -0.14022785 0.18806975 -0.050110478 0.018055722 -0.055725757
-0.15991555 -0.11604732 0.10528193 -0.09000508 -0.015595224 0.03525609 -0.05673237 -0.17534879
0.057949148 -0.0011926802 -0.052577317 -0.013672738 0.27510566 -0.088924594 -0.057831142 -0.056686837
0.19262992 -0.07475237 0.14522399 0.11127961 -0.0058525414 -0.09514232 0.06786179 -0.041512657
-0.0012614087 0.031893313 -0.035990488 0.014929283 -0.029603297 -0.11329006 0.015104703 -0.1439601
0.033282507 -0.14563942 0.14989153 -0.09782854 -0.0666198 0.0079521565 0.1962182 0.013236302
0.15898748 -0.011806721 -0.1057511 0.15889885 0.020962121 0.06370919 -0.13945541 -0.09710853
-0.089386545 -0.045020856 -0.0046913614 0.1295522 -0.10748578 0.024407594 -0.09644441 -0.14742184
-0.14004056 0.07569536 0.11827591 0.05180991 0.002667162 -0.10916112 0.021605622 -0.042696178
-0.11774978 -0.023760568 0.021759618 0.059794966 -0.009107929 -0.16048338 0.094350964 0.08363001
0.124490306 -0.07491575 0.14968292 -0.14921875 -0.09812654 -0.090834044 -0.11500604 0.05503722
0.05247829 0.14492816 0.0010767898 -0.011928531 0.08773073 -0.057909574 0.13670574 -0.097817264
00000000: b967 88be b8cd 513c 00d7 7cbd 947a c6bd
00000010: e732 113d 27ae 753d 558e 443d 4eac 913d
00000020: 3e8e 683e 07db bdbd b849 8e3c 3fd4 893d
00000030: 7ad9 a93d b4a3 50be 174c 10bd 5490 31be
00000040: d690 41bd 13be 823d 88e7 48bd 3a00 a7bc
00000050: 1987 153e 8e6e 943b 1d97 bfb9 8ccf 063e
00000060: 207b bdbd ec8f db3b 2d21 7cbd fb2d b93d
00000070: ddff 963c b425 fdbd b304 4d3d 9483 62bd
00000080: bb70 733d 0f5a 8dbd db1c fd3c 0729 d33d
00000090: ea1f bfb9 0f42 1b3c 6ab9 913d 2f04 83bd
000000a0: bfce 36bd fa97 78bc 157e 983d 6da1 0bbe
000000b0: ec69 39be de6f 34bd 82dd fc3d e836 ed3c
000000c0: 152f 6f3d 7393 ebbc 6130 76bd 8db2 09be
000000d0: e704 133e 43aa 12be 6050 18be 9fa3 0ebd
000000e0: ed29 eebd 0c7a bb3d 98ff 1abd 88ee 78bc
000000f0: 3ccb 773d b458 f5bd c391 c53d 838e e3bd
00000100: dc40 123e ce92 b63c 1123 ce3b 0fe5 14bc
00000110: 016e 02be ae5d fa3d be66 1f3d 31e9 c13c
00000120: b30f c63d b15a 46bd 2a7c 1d3d c400 a4bd
00000130: da37 1ebe 5757 bb3d ec95 293c d072 93bd
00000140: e60a 13be 03ea 0a3d 772a e7bd 308b ff3c
00000150: 97df 1bbd e575 19be 37a3 bc3d d179 9cbd
00000160: 9343 063e cce0 f2bd bbfb 223e 3c4b 39bd
00000170: f26f 05be 0d34 40bd 22d6 c2bd ec01 b63d
00000180: 6226 16be 0972 fabd 1edf 25be dcb7 f83c
00000190: bbec 39bc d727 c9bd 9afe c93d c516 12bd
000001a0: 9e1c 5cbd 5a46 abbd edfd c9bd 1e1a b13d
000001b0: e192 713d f3c3 173c cff3 f7bd 391f 75bd
000001c0: 1bd5 003e 4a2b 8e3c 06a4 14be 1944 20bd
000001d0: f531 9c3d 7c83 713e 4f65 c93d d06e 51bd
000001e0: 866e 87bc d8fc abbd 7aa8 983d 9779 4fbb
000001f0: 4c48 27bd dbec 9a3d a3ba 04bd 64ac 0a3e
00000200: d9fe 93bc d609 3abd 5cc0 0c3d f1ee 99bc
00000210: 75dd 693d f724 d83d 235b 0d3c 2148 183e
00000220: cdb5 b13b 24c9 fd3d 5fa0 323e af98 883d
00000230: 1986 b5bd d6fd 02be 5df6 083e cd8a 1b3d
00000240: 1dc8 2fbe 9c1d 1dbd aa81 263e 2650 b7ba
00000250: b6bd 4bbe 4ef6 383e 52b1 19be 523c d5bd
00000260: 1222 0b3e 3037 723d 5a10 a2bd f454 4ebd
00000270: 23a8 ab3a ef4a 303e 2d5e 0a3e 0b98 143e
00000280: 9d3a 9c3d bdb9 d4bd da59 3fbd e497 0fbe
00000290: 5b95 403e a540 4dbd 98e9 933c b140 64bd
000002a0: e7c0 23be 38aa edbd 0d9e d73d 9554 b8bd
000002b0: 1c83 7fbc b168 103d 3460 68bd a28e 33be
000002c0: 165c 6d3d b553 9cba 505b 57bd 9f03 60bc
000002d0: a6da 8c3e 191e b6bd 59e0 6cbd 7530 68bd
000002e0: c740 453e c517 99bd 99b5 143e 90e6 e33d
000002f0: adc6 bfbb fad9 c2bd 1ffb 8a3d 2d09 2abd
00000300: da55 a5ba 90a2 023d c36a 13bd f499 743c
00000310: 9d82 f2bc 9e04 e8bd b779 773c 476a 13be
00000320: 3d53 083d 8022 15be 2a7d 193e 545a c8bd
00000330: f66f 88bd c349 023c 6ced 483e 13dd 583c
00000340: 9dcd 223e fa70 41bc 0894 d8bd 61b6 223e
00000350: c1b8 ab3c f779 823d 66cd 0ebe d6e0 c6bd
00000360: 4b10 b7bd ca67 38bd feb9 99bb 55a9 043e
00000370: 8121 dcbd 6ff2 c73c a684 c5bd c0f5 16be
00000380: cb66 0fbe 2b06 9b3d a43a f23d a136 543d
00000390: 8ecb 2e3b de8f dfbd 46fe b03c 30e2 2ebd
000003a0: cc26 f1bd 86a5 c2bc 3a41 b23c 91eb 743d
000003b0: 6c39 15bc c155 24be 143b c13d 3646 ab3d
000003c0: c6f4 fe3d 6e6d 99bd 7b46 193e cdcc 18be
000003d0: 91f6 c8bd 3307 babd 4988 ebbd b56e 613d
000003e0: 7af3 563d 0c68 143e 1223 8d3a e36f 43bc
000003f0: 2bac b33d 9732 6dbd 97fc 0b3e 6b54 c8bd

model.0.bias f4 [222]
-0.2326768 0.022935025 -0.06683952 -0.019366205 0.03278395 0.022560455 0.024388568 -0.043154936
0.06581567 -0.11937268 0.14677733 -0.027882088 -0.06491298 0.023661993 -0.10342296 -0.18145597
0.06061728 0.15284729 0.07378494 0.042695418 -0.106150635 0.12774776 0.07452677 0.08464203
-0.15008414 0.0033624275 -0.11924583 -0.11738375 -0.09496586 0.12286896 0.060453735 0.06605658
-0.093440324 0.16422468 -0.0014998945 0.03727541 0.06241115 -0.07346026 0.024013782 0.027430722
-0.034966595 -0.05234193 -0.15359226 -0.17031312 -0.12984449 -0.0857662 -0.1843513 0.12107328
0.042036597 -0.11756433 -0.113267176 0.27803463 0.14160226 0.13151637 0.13232 0.064034685
-0.12668402 0.123681076 -0.097774684 -0.07473256 -0.13255836 0.066371426 -0.113234825 0.064813636
0.07869525 -0.17827159 0.12326537 -0.12491975 -0.030926708 -0.13936289 -0.056791663 0.1317886
-0.09658986 -0.16389138 -0.09223057 -0.1689946 0.14926562 -0.12101069 -0.04361503 0.1683055
0.09352717 0.07448574 -0.050335128 -0.1082627 -0.022556879 -0.047939677 0.06396237 -0.07536394
0.12927805 0.087481156 0.07253291 -0.14523104 -0.07213178 -0.0649802 -0.19915317 0.097783156
0.098658234 -0.037569404 0.13574693 0.011650989 -0.06472145 -0.079069 0.17681187 0.18357067
-0.09741602 -0.08567407 -0.12457285 -0.04422073 -0.019179424 -0.14765008 0.123206794 0.045525514
0.08201738 0.12710406 -0.016161771 -0.1246971 0.05375111 0.057318017 0.1433887 0.036263954
-0.15074378 -0.04245121 -0.06529417 0.108125396 -0.15238135 -0.123686664 0.14342885 0.0025808313
-0.058280166 -0.04861934 0.100928016 0.13529715 0.16056596 0.08215123 0.022323964 -0.009718451
0.016430398 -0.056303937 0.03859371 -0.06428235 -0.057096705 -0.030186923 0.11156009 0.10256702
0.2165589 0.06279319 -0.048501033 0.07343878 0.041265912 0.054491814 -0.025338048 0.1327895
0.07929537 -0.22373392 0.07171488 0.03745381 0.05009171 0.18198712 0.24226503 0.029235013
0.15792271 -0.062625766 0.15849318 0.09132907 -0.07210377 -0.15840346 -0.08222805 -0.050369773
-0.09720715 -0.06347419 0.073681876 -0.048734594 -0.043793555 -0.102173716 -0.11953208 0.14312649
0.14577295 0.043770578 -0.0050725094 0.009432386 -0.014111708 0.08300565 -0.13686341 0.15548298
0.12919803 0.15971108 -0.112596534 0.07388895 -0.07132856 0.06834648 0.103125386 0.13146086
0.011697511 -0.25670785 -0.19710095 0.08764715 -0.08054957 0.1790135 0.11021686 -0.092530675
-0.034201965 0.046480548 0.0226314 0.03666594 0.11296661 0.10885344 0.099899426 -0.041303396
-0.19096199 0.112245664 0.026985377 0.09992021 -0.059284095 0.15247573 -0.053662576 0.102585725
0.10290218 0.06550456 -0.0744053 0.0007249064 0.028123874 0.004000364
00000000: d442 6ebe 3ce2 bb3c 29e3 88bd e0a5 9ebc
00000010: 7748 063d b4d0 b83c 89ca c73c 3bc3 30bd
00000020: 5eca 863d aa79 f4bd cc4c 163e fa68 e4bc
00000030: 19f1 84bd ccd6 c13c 6bcf d3bd 98cf 39be
00000040: d349 783d 0084 1c3e 8f1c 973d 64e1 2e3d
00000050: 8165 d9bd 4fd0 023e 7ea1 983d cd58 ad3d
00000060: a8af 19be 2c5c 5c3b 2837 f4bd e466 f0bd
00000070: 767d c2bd b9a2 fb3d 569e 773d ac48 873d
00000080: a45d bfbd 842a 283e 1c98 c4ba 1aae 183d
00000090: d6a2 7f3d 5572 96bd 8db8 c43c 65b6 e03c
000000a0: 2239 0fbd 7e64 56bd 4a47 1dbe 9066 2ebe
000000b0: f4f5 04be 31a6 afbd 96c6 3cbe 45f5 f73d
000000c0: 912e 2c3d 91c5 f0bd 9ff8 e7bd 8e5a 8e3e
000000d0: 2f00 113e 3aac 063e e57e 073e 9e24 833d
000000e0: 75b9 01be 814c fd3d 183e c8bd 620d 99bd
000000f0: 61bd 07be beed 873d a9e7 e7bd 03bd 843d
00000100: fa2a a13d d48c 36be 8e72 fc3d edd5 ffbd
00000110: 025a fdbc 25b5 0ebe 609e 68bd 97f3 063e
00000120: e8d0 c5bd 24d3 27be 62e3 bcbd ec0c 2dbe
00000130: 16d9 183e 74d4 f7bd aca5 32bd 4758 2c3e
00000140: 2c8b bf3d fb8b 983d 352c 4ebd d6b8 ddbd
00000150: 34c9 b8bc 655c 44bd b4fe 823d 6958 9abd
00000160: 7761 043e 5229 b33d 228c 943d 72b7 14be
00000170: d4b9 93bd 5714 85bd cfee 4bbe 8942 c83d
00000180: 540d ca3d 60e2 19bd 3e01 0b3e cae3 3e3c
00000190: ae8c 84bd eeee a1bd 2c0e 353e f3f9 3b3e
000001a0: 0d82 c7bd e375 afbd 0d20 ffbd cc20 35bd
000001b0: 2b1e 9dbc 9531 17be d853 fc3d f678 3a3d
000001c0: baf8 a73d 9127 023e b165 84bc 3161 ffbd
000001d0: 202a 5c3d 4cc6 6a3d 7dd4 123e 8389 143d
000001e0: 945c 1abe 52e1 2dbd f3b8 85bd d970 dd3d
000001f0: db09 1cbe 6f4f fdbd 03df 123e 2a23 293b
00000200: 2fb7 6ebd 1325 47bd 59b3 ce3d 568b 0a3e
00000210: 676b 243e e73e a83d bfe0 b63c 233a 1fbc
00000220: 0b99 863c f59e 66bd 7014 1e3d 77a6 83bd
00000230: 3cde 69bd 914a f7bc 9e79 e43d a80e d23d
00000240: 9ec1 5d3e b799 803d 05a9 46bd 1267 963d
00000250: 7206 293d cf32 5f3d bd91 cfbc f8f9 073e
00000260: 9c65 a23d 811a 65be 40df 923d 2b69 193d
00000270: f72c 4d3d d55a 3a3e 5314 783e 447e ef3c
00000280: 7eb6 213e f041 80bd 094c 223e bc0a bb3d
00000290: 24ab 93bd 8434 22be 2e67 a8bd 8950 4ebd
000002a0: 8b14 c7bd c2fe 81bd 86e6 963d ed9d 47bd
000002b0: df60 33bd 7440 d1bd 3ccd f4bd c08f 123e
000002c0: 8145 153e c748 333d 4b37 a6bb 4b8a 1a3c
000002d0: cb34 67bc defe a93d ec25 0cbe ee36 1f3e
000002e0: 7d4c 043e 4d8b 233e 0399 e6bd 1753 973d
000002f0: b514 92bd 3df9 8b3d 6733 d33d ad9d 063e
00000300: eba6 3f3c 366f 83be d5d4 49be 5980 b33d
00000310: 2cf7 a4bd 514f 373e 61b9 e13d b980 bdbd
00000320: 5c17 0cbd 6362 3e3d 7c65 b93c 062f 163d
00000330: 0a5b e73d 8dee de3d 1298 cc3d c02d 29bd
00000340: 8a8b 43be 0ee1 e53d 7010 dd3c f8a2 cc3d
00000350: e1d3 72bd 9922 1c3e 4acd 5bbd 7718 d23d
00000360: 61be d23d 4127 863d ce61 98bd a507 3e3a
00000370: 0a64 e63c 7c15 833b

model.2.weight f4 [222]
1.1515731 0.95357496 0.9351693 0.92748994 1.046742 0.9741314 0.95340234 0.9342168
0.96212655 0.96199757 0.9295045 0.9472535 0.95198214 0.9668903 0.99530584 0.9268041
1.0713468 0.96792644 0.9354417 0.9398798 0.98289186 1.0429813 0.9324211 0.95918494
0.9519714 1.15059 0.95817506 0.9633351 1.0139762 0.929361 0.96193165 0.9267425
0.95376027 0.92827386 0.9493605 0.94506174 0.9328536 0.980592 0.9639189 0.942805
1.185342 0.92895246 0.92815435 1.1054459 0.96386755 0.90986484 1.0169215 0.96080035
1.0571752 0.9466187 0.94009966 0.9631737 0.93384 0.9563491 0.975725 0.97567725
0.9609256 0.9383496 1.0633652 0.97323626 0.95874685 1.0022582 1.0303276 0.9735942
1.090131 1.0016838 1.1381284 0.93884885 0.9740344 0.9732478 0.9578237 0.93308866
0.966675 0.9220008 0.9459645 0.94083357 0.9872881 0.95298266 1.0997431 0.96363866
0.9216089 1.093195 0.9815418 0.95708376 1.0154539 0.92597914 0.921474 0.9669755
0.97020435 0.9670155 0.95632607 0.9757838 1.0925533 0.9718471 0.98144805 0.9250632
1.1010118 1.0711125 0.9372636 0.937768 0.95658344 1.0101272 1.0919081 0.92344517
0.9632051 0.9195136 0.9876362 1.0567181 0.9763435 0.95634127 0.96788394 0.94464386
0.92825824 0.9571218 0.91172224 0.9438142 0.9896635 0.9697424 0.9616707 0.94902277
0.9718071 1.0039523 0.9588662 0.9480341 0.9060832 0.97421765 0.94813335 0.94634086
0.9531923 0.9458149 0.9238968 1.0403162 0.9159112 1.0792625 0.9669935 0.9653841
0.9588502 0.9744618 0.98211306 0.95382905 0.9522887 0.9807846 0.92732173 0.932275
0.9076853 1.0119833 0.9814904 0.9035012 0.90726334 0.94899666 0.9390934 0.9727636
1.0427449 1.055987 1.0200186 1.0533743 0.9685643 0.97058 0.94554245 0.93974817
0.93305093 0.9505682 1.0760888 0.9720785 1.0888609 0.9775968 0.93761826 0.94148344
0.9382695 0.9706601 0.93379056 0.9473781 0.97701585 0.944074 0.95418054 0.93440026
1.0846444 0.9397251 0.9956541 0.89727235 0.9890586 0.94637764 1.1196264 0.989242
0.90807503 0.9511929 0.93830913 1.1453968 0.9413464 0.9325274 1.0292221 0.97616917
0.92373663 1.0490828 1.0670475 0.9419132 0.9376408 0.91320777 0.94940525 1.0550648
0.93232405 0.96081084 0.9424709 0.94820964 0.9467037 0.9279288 1.0681974 0.93168235
0.9417721 1.0127472 0.96588326 0.96888405 0.95473933 0.96837974 1.0355649 0.9759968
0.9234821 0.9636429 0.9387323 1.0060488 0.99084324 0.9134726
00000000: bf66 933f 7d1d 743f 4167 6f3f fb6f 6d3f
00000010: a4fb 853f ad60 793f 2d12 743f d528 6f3f
00000020: ed4d 763f 7945 763f 02f4 6d3f 357f 723f
00000030: 1ab5 733f 1f86 773f 5dcc 7e3f 0943 6d3f
00000040: e421 893f 07ca 773f 1b79 6f3f f69b 703f
00000050: cd9e 7b3f 6980 853f 26b3 6e3f 258d 753f
00000060: 66b4 733f 8846 933f f64a 753f 219d 763f
00000070: f9c9 813f 9aea 6d3f 2741 763f ff3e 6d3f
00000080: a229 743f 5ba3 6d3f 4a09 733f 91ef 713f
00000090: 7ecf 6e3f 1408 7b3f 64c3 763f ab5b 713f
000000a0: 49b9 973f d4cf 6d3f 869b 6d3f 407f 8d3f
000000b0: 06c0 763f e7ec 683f 7c2a 823f 03f7 753f
000000c0: 8451 873f 9a55 723f 5faa 703f 8d92 763f
000000d0: 2310 6f3f 4bd3 743f 1dc9 793f fcc5 793f
000000e0: 38ff 753f ae37 703f 5a1c 883f 0326 793f
000000f0: 6f70 753f ff49 803f c6e1 833f 783d 793f
00000100: 6a89 8b3f 2d37 803f 31ae 913f 6658 703f
00000110: 525a 793f c526 793f ef33 753f e6de 6e3f
00000120: 0378 773f 3f08 6c3f bb2a 723f 78da 703f
00000130: eabe 7c3f acf6 733f 62c4 8c3f 06b1 763f
00000140: 90ee 6b3f d0ed 8b3f 5346 7b3f 7103 753f
00000150: 65fa 813f f80c 6d3f b8e5 6b3f b58b 773f
00000160: 505f 783f 548e 773f c9d1 743f f8cc 793f
00000170: c9d8 8b3f f9ca 783f 2e40 7b3f f1d0 6c3f
00000180: f4ed 8c3f 371a 893f 82f0 6f3f 9011 703f
00000190: a7e2 743f d94b 813f a5c3 8b3f e766 6c3f
000001a0: 9c94 763f 3e65 6b3f bad5 7c3f 8a42 873f
000001b0: a6f1 793f c8d2 743f 3ec7 773f 2ed4 713f
000001c0: 55a2 6d3f ef05 753f a166 693f cf9d 713f
000001d0: 965a 7d3f 0a41 783f 0d30 763f 28f3 723f
000001e0: 5ac8 783f 8281 803f 4178 753f 5db2 723f
000001f0: 12f5 673f 5466 793f deb8 723f 6543 723f
00000200: 6904 743f ed20 723f 8084 6c3f 1529 853f
00000210: 2879 6a3f 4625 8a3f e38c 773f 6a23 773f
00000220: 3577 753f 5476 793f c36b 7b3f 242e 743f
00000230: 31c9 733f b314 7b3f f564 6d3f 93a9 6e3f
00000240: 105e 683f ab88 813f f442 7b3f db4b 673f
00000250: 6942 683f 72f1 723f 6d68 703f 0907 793f
00000260: aa78 853f 952a 873f f88f 823f f8d4 863f
00000270: d4f3 773f ee77 783f 120f 723f 5693 703f
00000280: 6ddc 6e3f 7058 733f 47bd 893f 23da 783f
00000290: cb5f 8b3f c943 7a3f c007 703f 0f05 713f
000002a0: 6e32 703f 2e7d 783f e60c 6f3f 5f87 723f
000002b0: b61d 7a3f d5ae 713f 2d45 743f db34 6f3f
000002c0: a1d5 8a3f d391 703f 30e3 7e3f a4b3 653f
000002d0: f232 7d3f ce45 723f eb4f 8f3f f73e 7d3f
000002e0: 9b77 683f 6181 733f 0735 703f 5d9c 923f
000002f0: 14fc 703f 1eba 6e3f 8dbd 833f 39e6 793f
00000300: 017a 6c3f 5848 863f 0395 883f 3921 713f
00000310: 3a09 703f fcc7 693f 390c 733f 5d0c 873f
00000320: caac 6e3f b3f7 753f c645 713f debd 723f
00000330: 2c5b 723f be8c 6d3f b1ba 883f bc82 6e3f
00000340: fa17 713f b3a1 813f 2044 773f c908 783f
00000350: cc69 743f bce7 773f 648d 843f edda 793f
00000360: 5369 6c3f 4db1 763f c350 703f 35c6 803f
00000370: e7a7 7d3f 57d9 693f

model.2.bias f4 [222]
-0.053017586 0.121312566 -0.14495617 0.06288858 -0.049462374 0.08533474 0.045461334 -0.096582845
0.11322021 -0.093342856 -0.054254025 -0.029674092 -0.01611959 -0.09962569 -0.022579866 0.0060294233
0.24020678 -0.029302347 0.055509206 -0.0041653407 -0.0031249586 0.0026545683 0.053347234 -0.078447685
-0.02710196 0.119314164 -0.1069192 -0.0059529953 0.19242051 0.101125 -0.037131395 -0.113033116
-0.07033975 -0.06598312 -0.03244452 0.05850083 0.06718989 0.13840681 -0.03205491 0.023318516
0.33832556 0.07292299 0.09321132 -0.0065266048 0.21362284 -0.11179382 -0.082171015 -0.053108763
-0.056532897 0.042118 -0.04793407 0.059982985 -0.08348703 0.07324395 0.02473429 0.1619805
-0.063700825 0.021003595 -0.085582346 0.05564484 0.15909205 0.12418151 0.027298992 -0.011560381
0.093804896 -0.11732398 0.17855236 -0.09263448 0.024948824 0.12925988 -0.05318561 -0.06437246
0.1294125 -0.03502992 0.07002518 0.19521976 -0.047773644 0.09091386 0.035576094 0.1645902
-0.066320054 0.20852636 -0.003143458 -0.124751635 0.10360769 0.032673992 0.012014657 0.13758421
-0.1353389 0.057647407 0.08740114 -0.01802469 -0.009261135 0.14725596 0.045259427 -0.102728486
-0.06107488 0.18045345 -0.042394932 -0.06339157 -0.0023380562 0.009814021 0.11837593 0.099997595
-0.055523213 -0.028279042 0.15424562 0.014398374 -0.020865321 0.13915195 -0.023367668 6.016146e-05
0.046049956 0.00834816 -0.06370562 0.09729648 0.11137134 0.044422057 -0.10549943 -0.048504815
-0.12549525 0.036799487 0.057917494 -0.11467838 0.048290264 0.026407111 -0.04908773 0.13081871
0.064439796 0.05179426 0.08995155 0.08098547 0.03588297 0.025654774 -0.15351482 -0.007565563
-0.052649383 0.17723933 0.06767869 0.04775303 -0.023169594 0.059111185 0.01973381 -0.00072599284
-0.01151194 -0.046536364 -0.0020262364 0.08684101 -0.09005503 -0.09954505 0.009865965 0.09237833
0.21484149 -0.04313288 0.11941206 0.06819501 0.15973109 0.029174615 -0.10254413 0.09893638
-0.019514358 -0.03580782 0.10698148 -0.06712777 -0.069167174 -0.019544024 0.03913389 -0.084073655
-0.05063251 0.1425355 0.032127462 -0.04672445 0.07622806 -0.02329761 0.17867264 -0.00579631
0.24899906 -0.10324413 0.12434484 -0.1971097 0.15263216 -0.027220912 0.149295 0.14875604
0.11473747 -0.11621333 0.02237477 0.112290025 0.11107233 -0.004152334 -0.105732836 0.11804363
-0.1627989 0.032307845 -0.021791967 0.11270813 0.18604249 -0.05989883 0.12244564 0.07506022
-0.12230452 0.06324636 -0.051133025 -0.12064592 0.17630434 0.07760676 0.10085254 -0.04614399
-0.09994053 0.1560173 -0.06434433 0.13726343 0.023089759 0.08079972 0.18564616 0.063300386
-0.096048035 -0.03320967 0.13224107 0.07298255 0.12141084 0.08037645
00000000: f828 59bd b972 f83d 646f 14be bacb 803d
00000010: 0f99 4abd fbc3 ae3d aa35 3a3d 3acd c5bd
00000020: ffdf e73d 8a2a bfbd 7839 5ebd 1517 f3bc
00000030: 3b0d 84bc 8e08 ccbd 69f9 b8bc 7892 c53b
00000040: c4f8 753e 7a0b f0bc 9f5d 633d 697d 88bb
00000050: 1bcc 4cbb 44f8 2d3b a182 5a3d 2ea9 a0bd
00000060: ee04 debc fc5a f43d 74f8 dabd 5811 c3bb
00000070: e209 453e a01a cf3d 1717 18bd e87d e7bd
00000080: 490e 90bd 2822 87bd 8ce4 04bd 919e 6f3d
00000090: da9a 893d 84ba 0d3e 024c 03bd 7906 bf3c
000000a0: 0239 ad3e a658 953d 94e5 be3d 21dd d5bb
000000b0: f2bf 5a3e 29f4 e4bd 4749 a8bd 9388 59bd
000000c0: 0a8f 67bd ed83 2c3d 8456 44bd b8b0 753d
000000d0: 3ffb aabd ed00 963d 919f ca3c 37de 253e
000000e0: 9475 82bd bb0f ac3c cc45 afbd d8eb 633d
000000f0: 07e9 223e e052 fe3d 23a2 df3c c167 3dbc
00000100: c81c c03d 8e47 f0bd 6ed6 363e 25b7 bdbd
00000110: 7a61 cc3c b45c 043e 27d9 59bd b5d5 83bd
00000120: b684 043e 897b 0fbd 5d69 8f3d b0e7 473e
00000130: 4cae 43bd 0c31 ba3d 3db8 113d 558a 283e
00000140: cfd2 87bd ef87 553e 7902 4ebb c97d ffbd
00000150: 4530 d43d 2ad5 053d 20d9 443c e0e2 0c3e
00000160: 4896 0abe b01f 6c3d 5eff b23d 84a8 93bc
00000170: 04bc 17bc 44ca 163e f361 393d 5063 d2bd
00000180: a729 7abd cac8 383e 4fa6 2dbd 70d3 81bd
00000190: 133a 19bb fdca 203c 146f f23d 8acb cc3d
000001a0: 4f6c 63bd 73a9 e7bc 90f2 1d3e 28e7 6b3c
000001b0: c0ed aabc d97d 0e3e 8d6d bfbc e055 7c38
000001c0: e19e 3c3d b9c6 083c 1878 82bd 6043 c73d
000001d0: a816 e43d e7f3 353d 1610 d8bd fcac 46bd
000001e0: d481 00be 0fbb 163d e53a 6d3d 80dc eabd
000001f0: 03cc 453d ba53 d83c 3710 49bd 57f5 053e
00000200: 03f9 833d 3826 543d 8538 b83d b6db a53d
00000210: 05fa 123d f629 d23c fd32 1dbe 8be8 f7bb
00000220: e1a6 57bd 3a7e 353e 209b 8a3d ae98 433d
00000230: 29ce bdbc 921e 723d cda8 a13c 8e50 3eba
00000240: 939c 3cbc ea9c 3ebd 9bca 04bb b3d9 b13d
00000250: c66e b8bd 46de cbbd dba4 213c da30 bd3d
00000260: 68ff 5b3e 1aac 30bd 4f8e f43d d3a9 8b3d
00000270: 8c90 233e 9aff ee3c a802 d2bd 289f ca3d
00000280: 93dc 9fbc 38ab 12bd 1b19 db3d 497a 89bd
00000290: 85a7 8dbd ca1a a0bc dc4a 203d cf2e acbd
000002a0: 0964 4fbd d3f4 113e 1698 033d 2362 3fbd
000002b0: 751d 9c3d a1da bebc f6f5 363e f9ee bdbb
000002c0: 9cf9 7e3e a971 d3bd 82a8 fe3d 20d7 49be
000002d0: 9b4b 1c3e 64fe debc cae0 183e 8153 183e
000002e0: 7bfb ea3d 4101 eebd 4b4b b73c 50f8 e53d
000002f0: e479 e33d 4d10 88bb 758a d8bd dcc0 f13d
00000300: c1b4 26be 3b55 043d 1185 b2bc 85d3 e63d
00000310: ec81 3e3e 7a58 75bd c8c4 fa3d 2cb9 993d
00000320: cb7a fabd 4f87 813d dd70 51bd 3515 f7bd
00000330: 2089 343e 4bf0 9e3d c78b ce3d 7b01 3dbd
00000340: 9fad ccbd 00c3 1f3e f6c6 83bd c98e 0c3e
00000350: bc26 bd3c 537a a53d 071a 3e3e a2a3 813d
00000360: d5b4 c4bd dd06 08bd 346a 073e e077 953d
00000370: 3fa6 f83d 699c a43d

model.2.running_mean f4 [222]
0.082376495 0.0065413383 0.0032551053 10.783176 0.14086801 0.0045270873 0.004555799 23.611746
0.0068104006 0.0030434877 0.0037818132 5.186574 3.2798753 0.25904 0.00491855 5.948248
0.30336562 0.007831344 2.0042925 12.413076 0.17436732 0.13254009 16.847088 0.001423474
5.542995 0.019555008 2.7809405 0.6101115 0.36280447 5.1188297 0.0035491798 4.8231483
0.008244494 3.37458 0.7746912 0.0025712098 1.8762554 0.005777066 0.47603062 0.003732582
0.12386948 6.9161897 0.0010645529 0.04766683 0.00059670187 4.6610436 0.065739095 1.8135862
0.14461721 0.002065288 2.3831038 0.8467868 30.508038 0.0076148333 0.008580334 0.0032233868
0.0012227278 4.1523075 0.079969995 0.004016861 0.0010254644 0.013337864 0.005253704 0.0018347832
0.007270196 0.4225389 0.25895676 6.5015182 0.706517 0.0019542049 0.0019924482 0.00081857835
1.7416262e-19 7.4536276 22.929447 0.0004602585 0.011243592 0.0026659141 0.03899163 0.009764334
22.707056 0.17099506 0.00467255 2.1009817 0.016294798 11.465565 12.702756 0.0034864456
3.5403173 0.7314744 0.004392191 0.0007888409 0.15834498 0.0027130225 0.23078996 1.0991467
0.05053377 0.0051971 0.0034332806 0.001066369 0.0019327226 0.13191986 0.013719171 2.08421
0.0009013547 13.245102 0.00051545847 0.15941998 0.0035089513 0.00016491093 0.0041109347 0.002026682
4.647127 0.0022875667 18.552692 0.0011679742 0.0033238283 0.0053082756 0.0069706817 10.46629
2.654323e-18 0.0105245095 3.6309676 0.0007620421 0.0022865422 0.004345332 14.469154 0.0019348363
0.00055336626 1.296382 1.2026181 0.2721069 32.205894 0.039103087 0.46230727 0.01005502
0.004225585 0.0024053596 0.39140543 1.3467937 7.7168975 0.00057953416 1.0072001 0.005990442
7.2125225 0.005834445 0.00028718388 24.015985 1.8329806 3.832676 0.0045113154 0.0021744214
0.27200732 0.07380426 0.033696055 0.022206916 0.8507716 0.54983324 1.5109522 0.0022649327
12.276537 10.501143 0.42269245 0.5527152 0.116480574 0.0002447707 0.0016360795 0.0036268695
8.597305 0.0058561116 3.2222254 0.0016809066 0.0045932624 32.512814 0.0028843472 1.7962699
0.14751077 13.835531 0.7676746 4.2802744 0.0003961775 2.353679 0.027647518 0.0049952194
21.894606 0.56779283 12.4841795 0.00858466 0.6779292 4.7643275 0.28746212 0.0030236838
23.760868 0.04913677 0.012051148 0.003062104 0.0045312555 5.5233846 0.003940985 0.4037697
0.0015600226 0.0007376299 0.003633892 0.0006514571 0.0020242815 8.661268 0.013402036 4.085339
0.0016575132 0.40649694 0.0043288325 0.0011605377 0.0015351758 0.019171238 0.46743435 0.003902368
8.665206 0.002067667 0.0027715503 0.5429431 0.009333351 2.4270716
00000000: 02b5 a83d b958 d63b 9b53 553b e487 2c41
00000010: b43f 103e f657 943b d048 953b dbe4 bc41
00000020: c829 df3b 4075 473b 4cd8 773b 6af8 a540
00000030: 7ae9 5140 e4a0 843e ca2b a13b 0c58 be40
00000040: bd52 9b3e 0a4f 003c 5446 0040 f69b 4641
00000050: 598d 323e 97b8 073e d6c6 8641 dd93 ba3a
00000060: 3760 b140 d331 a03c eefa 3140 4430 1c3f
00000070: 82c1 b93e 74cd a340 5b99 683b 3b57 9a40
00000080: ea13 073c 1ef9 5740 2a52 463f be81 283b
00000090: 2329 f03f 8b4d bd3b 49ba f33e 569e 743b
000000a0: 48af fd3d 6d51 dd40 7888 8b3a 4b3e 433d
000000b0: fc6b 1c3a 4527 9540 38a2 863d 9823 e83f
000000c0: 8916 143e c859 073b c684 1840 05c7 583f
000000d0: 7610 f441 da85 f93b 8794 0c3c 753f 533b
000000e0: f043 a03a b4df 8440 4fc7 a33d df9f 833b
000000f0: e068 863a 0e87 5a3c 4327 ac3b 1c7d f03a
00000100: d33a ee3b 0557 d83e fb95 843e 700c d040
00000110: 4cde 343f 1e12 003b bc93 023b dd95 563a
00000120: 6c9d 4d20 1e84 ee40 826f b741 da4e f139
00000130: 0b37 383c 9eb6 2e3b b0b5 1f3d 96fa 1f3c
00000140: 0da8 b541 5419 2f3e 311c 993b 7c76 0640
00000150: ab7c 853c f472 3741 7d3e 4b41 da7c 643b
00000160: 8f94 6240 e841 3b3f 5eec 8f3b 37ca 4e3a
00000170: 3025 223e f7cc 313b 3454 6c3e d7b0 8c3f
00000180: 80fc 4e3d 6f4c aa3b e400 613b 68c5 8b3a
00000190: 6953 fd3a 0016 073e 60c6 603c b263 0540
000001a0: e448 6c3a f0eb 5341 d51f 073a fe3e 233e
000001b0: 6ff6 653b f1eb 2c39 05b5 863b 15d2 043b
000001c0: 44b5 9440 00eb 153b ea6b 9441 b616 993a
000001d0: 96d4 593b 0bf1 ad3b 516a e43b ed75 2741
000001e0: beda 4322 fe6e 2c3c c661 6840 c8c3 473a
000001f0: d0d9 153b 4963 8e3b a881 6741 559a fd3a
00000200: c80f 113a d8ef a53f 64ef 993f 9851 8b3e
00000210: d6d2 0042 8f2a 203d 8ab3 ec3e d0bd 243c
00000220: c776 8a3b 3da3 1d3b 4b66 c83e bc63 ac3f
00000230: d3f0 f640 e1eb 173a efeb 803f 784b c43b
00000240: fccc e640 df2e bf3b 2b91 9639 bd20 c041
00000250: 1c9f ea3f 904a 7540 a8d3 933b bd80 0e3b
00000260: 8b44 8b3e b026 973d e004 0a3d 47eb b53c
00000270: 2bcc 593f dfc1 0c3f e266 c13f 446f 143b
00000280: b26c 4441 af04 2841 256b d83e be7e 0d3f
00000290: 5e8d ee3d 9154 8039 b871 d63a c6b0 6d3b
000002a0: 908e 0941 a0e4 bf3b f138 4e40 de51 dc3a
000002b0: 1483 963b 1f0d 0242 5107 3d3b 2cec e53f
000002c0: 100d 173e 565e 5d41 5386 443f 02f8 8840
000002d0: 0bb6 cf39 ada2 1640 0c7d e23c f0ae a33b
000002e0: 2728 af41 df5a 113f 33bf 4741 aca6 0c3c
000002f0: c58c 2d3f 5f75 9840 3c2e 933e ff28 463b
00000300: 4216 be41 a343 493d 2e72 453c 95ad 483b
00000310: ed7a 943b 91bf b040 6123 813b e7ba ce3e
00000320: ac79 cc3a 815d 413a 9726 6e3b 8cc6 2a3a
00000330: cfa9 043b 8e94 0a41 3794 5b3c 19bb 8240
00000340: ea40 d93a 5e20 d03e e1d8 8d3b 2f1d 983a
00000350: f437 c93a 000d 9d3c 8e53 ef3e dfbe 7f3b
00000360: afa4 0a41 b281 073b e6a2 353b 52fe 0a3f
00000370: e9ea 183c 2455 1b40

model.2.running_var f4 [222]
0.0324388 0.005788707 0.0027845309 38.334938 0.060819108 0.003181911 0.0031322497 176.93176
0.004725396 0.0022568712 0.0017352406 8.681414 4.189251 0.07585377 0.001967542 12.131966
0.08845919 0.005711839 1.4539138 48.322453 0.064014025 0.04462805 91.56567 0.0009800199
11.243982 0.0131006 3.2686343 0.41827503 0.15691262 8.408542 0.0032733714 7.942707
0.0149494475 3.2075403 0.36233225 0.0011428056 1.5286837 0.0068216813 0.14361098 0.0032278684
0.038470894 16.197645 0.0003556335 0.020334996 0.00021668301 8.009954 0.02221054 1.2433497
0.061482333 0.00085642486 2.6681693 0.21488586 290.99698 0.008428244 0.0055135335 0.0015035082
0.00048604078 6.373831 0.03074334 0.0024315654 0.0005055311 0.0072809844 0.0017714549 0.00065071735
0.0019483404 0.22168015 0.08041422 13.038772 0.2930957 0.0009859629 0.0014515057 0.00030088404
7.936546e-21 17.617699 167.73264 0.00023660291 0.011391152 0.0013485653 0.021671481 0.008650805
161.09361 0.050362926 0.0028047008 1.3970056 0.011623311 42.91501 48.29838 0.0020847039
5.177307 0.43051586 0.0027049151 0.0003010442 0.05857455 0.0020227788 0.12464865 0.50244284
0.02076656 0.002403033 0.0018434776 0.00038435584 0.0007165097 0.06445278 0.0076261065 1.6319289
0.00034669432 58.279285 0.00023617341 0.070561476 0.0021579745 3.8377224e-05 0.0029439225 0.0007946812
7.281141 0.0011573912 112.109375 0.0007644007 0.0017881856 0.004089636 0.009832772 36.301407
5.4296115e-19 0.011848087 4.1475873 0.0007307615 0.0009631222 0.0017650962 64.74872 0.00093528896
0.00018334629 1.0304766 0.6967869 0.10745039 325.41223 0.023939742 0.14505203 0.013977151
0.003719842 0.0016760565 0.12027573 0.5847916 19.260592 0.0001995293 0.55860543 0.004829381
16.673527 0.0023297456 0.0001125596 177.45459 1.1840299 4.86637 0.0031503453 0.0019840384
0.09508272 0.022339843 0.03704668 0.020116849 0.31119576 0.15216191 0.6926511 0.0011253713
46.054813 37.227673 0.13438417 0.1858017 0.041881237 0.00013775178 0.0010282344 0.0024801209
23.974823 0.008772453 3.7760396 0.00060207915 0.0036646542 337.09067 0.0014551413 1.0961064
0.04932774 61.330418 0.37453365 5.000541 0.00018862309 1.4973202 0.0108213015 0.002541029
152.2168 0.27518785 55.216896 0.0037798893 0.35443443 7.0759006 0.12162731 0.0014448455
181.96416 0.018428445 0.0039608423 0.0015066776 0.0030269108 7.9183173 0.0017678865 0.15027428
0.0007490987 0.00052717567 0.0032302418 0.0003692796 0.0008090549 23.125011 0.008551265 5.633883
0.0008825016 0.15890713 0.0029933655 0.00039952926 0.00088405836 0.019500572 0.22982168 0.0024955545
21.432245 0.0012067459 0.0015735008 0.20657212 0.006699544 2.7125916
00000000: 8cde 043d 32af bd3b ad7c 363b fa56 1942
00000010: 751d 793d 9c87 503b 6e46 4d3b 88ee 3043
00000020: 7fd7 9a3b 04e8 133b 0371 e33a 12e7 0a41
00000030: 580e 8640 3959 9b3d e1f1 003b 881c 4241
00000040: 182a b53d 612a bb3b d919 ba3f 314a 4142
00000050: c919 833d e7cb 363d 9f21 b742 0374 803a
00000060: 5ae7 3341 e6a3 563c 4e31 5140 2528 d63e
00000070: b4ad 203e 6389 0641 0f86 563b a82a fe40
00000080: 87ee 743c 5748 4d40 9d83 b93e 31ca 953a
00000090: e8ab c33f 6988 df3b c20e 133e a58a 533b
000000a0: a893 1d3d c794 8141 5274 ba39 9495 a63c
000000b0: 6735 6339 c628 0041 e1f2 b53c 1526 9f3f
000000c0: e6d4 7b3d b381 603a 49c3 2a40 0a0b 5c3e
000000d0: 9d7f 9143 9e16 0a3c dfaa b43b 5d11 c53a
000000e0: 4ad3 fe39 6cf6 cb40 75d9 fb3c e65a 1f3b
000000f0: 9e85 043a 5395 ee3b 2a30 e83a e794 2a3a
00000100: 755f ff3a 1f00 633e 36b0 a43d cf9e 5041
00000110: a410 963e 6d3b 813a 7340 be3a f9bf 9d39
00000120: c8ea 151e 0cf1 8c41 8ebb 2743 9c18 7839
00000130: f4a1 3a3c 58c2 b03a 6488 b13c 1bbc 0d3c
00000140: f717 2143 5b49 4e3d 12cf 373b 14d1 b23f
00000150: b36f 3e3c f8a8 2b42 8b31 4142 879f 083b
00000160: 80ac a540 936c dc3e f244 313b 78d5 9d39
00000170: deeb 6f3d 9990 043b cb47 ff3d 18a0 003f
00000180: a21e aa3c 347c 1d3b d8a0 f13a 5e83 c939
00000190: 27d4 3b3a d2ff 833d 6be4 f93b 0ce3 d03f
000001a0: 86c4 b539 fd1d 6942 51a5 7739 8982 903d
000001b0: ce6c 0d3b 3bf7 2038 d3ee 403b 2752 503a
000001c0: 1bff e840 9bb3 973a 0038 e042 1062 483a
000001d0: 8d61 ea3a 5a02 863b a319 213c a434 1142
000001e0: fc40 2021 7b1e 423c 09b9 8440 9390 3f3a
000001f0: 097a 7c3a cd5a e73a 587f 8142 2e2e 753a
00000200: a540 4039 a8e6 833f a060 323f f30e dc3d
00000210: c4b4 a243 471d c43c 8588 143e 6c00 653c
00000220: 98c8 733b 20af db3a 1f53 f63d e7b4 153f
00000230: b115 9a41 bd38 5139 c400 0f3f c93f 9e3b
00000240: 6263 8541 a5ae 183b fa0d ec38 6074 3143
00000250: 4b8e 973f 4eb9 9b40 0676 4e3b a406 023b
00000260: bbba c23d 0c02 b73c 42be 173d 17cc a43c
00000270: 0d55 9f3e 55d0 1b3e 9551 313f 3281 933a
00000280: 2138 3842 23e9 1442 019c 093e cd42 3e3e
00000290: a98b 2b3d 7671 1039 d2c5 863a 8689 223b
000002a0: 70cc bf41 56ba 0f3c a2aa 7140 d9d4 1d3a
000002b0: b22a 703b 9b8b a843 71ba be3a 374d 8c3f
000002c0: e20b 4a3d 5952 7542 e0c2 bf3e 6f04 a040
000002d0: 20c9 4539 30a8 bf3f d44b 313c 6487 263b
000002e0: 8037 1843 6ce5 8c3e 1ade 5c42 05b8 773b
000002f0: 6e78 b53e c76d e240 bd17 f93d f860 bd3a
00000300: d3f6 3543 40f7 963c f4c9 813b b67b c53a
00000310: 235f 463b db62 fd40 6db8 e73a 80e1 193e
00000320: 2a5f 443a 2932 0a3a 77b2 533b de9b c139
00000330: c116 543a 0600 b941 9b1a 0c3c c548 b440
00000340: ae57 673a 8db8 223e 572c 443b e977 d139
00000350: 27c0 673a aabf 9f3c 6056 6b3e 758c 233b
00000360: 3d75 ab41 ac2b 9e3a ed3d ce3a a487 533e
00000370: d987 db3b 1a9b 2d40

model.4.weight f4 [80, 222]
-0.08286037 0.03101769 -0.014234652 0.052155264 -0.07285088 -0.006758243 -0.03572807 0.03541446
-0.04252474 0.025193417 -0.002386125 0.0033676315 0.041983955 0.0010743006 -0.05236248 0.022231821
0.054598834 -0.038316626 0.04098734 0.023432618 -0.06350884 0.053326342 0.008981931 -0.043869216
0.06245886 0.044090383 0.0035393334 0.021614106 0.021920467 -0.022098651 0.007864605 0.049434334
-0.007164483 -0.04662504 0.011171471 -0.059783366 0.035054624 0.050426 -0.01989281 0.00011015851
-0.028211946 0.0010153071 -0.040951245 -0.025592528 0.011630217 -0.024818905 -0.118016556 0.031103283
-0.038702592 -0.04246378 0.039024882 -0.0038795418 0.06258879 -0.0069101616 -0.041268017 0.062294982
0.06141031 0.044955857 -0.014223373 -0.06474445 0.02794767 0.033720717 -0.06322234 -0.06127235
-0.048892997 -0.036446515 -0.024092915 -0.048800927 0.025795208 -0.040009797 0.022250952 0.025805948
-0.05499095 0.04490731 -0.0338505 0.04952442 -0.022037478 0.04286494 0.031002467 0.052434128
-0.047798518 0.016542003 0.016248297 0.05078358 0.0019333656 0.031200511 0.016590653 0.0070868316
-0.015841404 -0.04102434 0.032034736 -0.05986445 -0.0084550055 -0.0388929 0.019780507 -0.018860187
-0.023037303 0.025616268 0.024696289 -0.02255063 0.01562917 0.054729383 0.04193376 0.05349338
0.03373664 -0.05619993 -0.0026862845 0.014568427 -0.03793517 -0.003020097 -0.04495469 -0.061855577
-0.0067175026 0.014760109 0.04203764 -0.050752297 -0.071148366 0.020378293 -0.054775845 0.004189713
0.06102242 -0.09099256 -0.016820457 -0.030222693 -0.012475123 -0.0040148627 -0.0145493625 -0.058716267
-0.026065214 0.000971588 -0.044206675 0.045896728 -0.05615626 -0.013995431 0.0724765 -0.036697574
0.04663709 0.04587598 0.06351234 -0.036210977 0.0566009 -0.036821548 -0.021305714 0.043692686
0.04292134 -0.066426754 -0.06825916 -0.039685022 0.032844644 0.006139587 -0.04064048 -0.030259456
0.030478066 -0.07802567 -0.020227455 -0.08559984 0.05393337 0.057287768 0.060566034 0.04689309
-0.016103752 0.010532409 0.057968218 0.02491442 0.01362078 -0.013267921 0.0067848004 0.01104406
-0.04435735 -0.073161624 0.016224897 -0.009720681 0.0047389586 -0.0031520987 -0.027204394 0.04126839
-0.013560963 -0.008604219 -0.037495025 -0.03253446 -0.09498867 -0.010017793 -0.00033398822 -0.071355075
0.010302592 -0.037605982 -0.008355278 0.10087553 -0.046650548 -0.04517893 -0.0711461 -0.03339978
0.030228231 -0.16523854 0.0065084053 -0.0117168585 -0.06833557 0.026922518 -0.036917377 0.020829521
0.045918625 -0.04155593 0.028909815 0.0045307614 0.023117393 -0.049059782 -0.027752638 0.0063905506
-0.042946 0.007440103 -0.028629253 -0.0846408 0.050201826 -0.007991378 0.009874976 -0.008574881
-0.049506944 0.046506405 0.03406824 -0.01262858 -0.054151196 0.016633064 0.09259174 0.03265736
-0.036633346 0.006329592 0.048104614 -0.008523785 -0.022244768 0.040950958 0.017592188 -0.0013221812
0.045292776 -0.012554589 -0.052858405 -0.0025797975 -0.013025822 -0.030035133 -0.06341499 -0.03246286
-0.022196185 0.00968725 0.006758414 -0.05604369 -0.03175923 -0.041064087 0.053997975 -0.12579575
-0.024439054 0.0048758574 -0.12541425 -0.010597695 0.010399584 0.012459847 0.036461655 -0.024538403
00000000: b3b2 a9bd d018 fe3c 7538 69bc c2a0 553d
00000010: d832 95bd 4074 ddbb 9957 12bd c10e 113d
00000020: 6c2e 2ebd 6d62 ce3c 8960 1cbb 7bb3 5c3b
00000030: 5ef7 2b3d 8ccf 8c3a 0a7a 56bd 821f b63c
00000040: 07a3 5f3d e5f1 1cbd 57e2 273d c3f5 bf3c
00000050: ec10 82bd b96c 5a3d f328 133c 35b0 33bd
00000060: ddd4 7f3d 1e98 343d 29f4 673b 1110 b13c
00000070: 8d92 b33c 3b08 b5bc 8bda 003c a87b 4a3d
00000080: 0ac4 eabb e6f9 3ebd 8c08 373c 67df 74bd
00000090: 7095 0f3d 7e8b 4e3d 3ff6 a2bc e604 e738
000000a0: bd1c e7bc 0e14 853a 7ebc 27bd 6ca7 d1bc
000000b0: aa8c 3e3c 0451 cbbc aab2 f1bd 50cc fe3c
000000c0: 9c86 1ebd 80ee 2dbd 8ed8 1f3d e93f 7ebb
000000d0: 8d2e 803d a36e e2bb a708 29bd 0629 7f3d
000000e0: 6189 7b3d a223 383d 2609 69bc bd98 84bd
000000f0: 83f2 e43c bc1e 0a3d b77a 81bd b7f8 7abd
00000100: 0644 48bd f148 15bd 815e c5bc 7be3 47bd
00000110: 7950 d33c 50e1 23bd a147 b63c ff66 d33c
00000120: 313e 61bd baf0 373d d2a6 0abd 1eda 4a3d
00000130: f187 b4bc 2693 2f3d e3f8 fd3c 2bc5 563d
00000140: 61c8 43bd 1883 873c 261b 853c 7102 503d
00000150: fc68 fd3a 3798 ff3c 1fe9 873c a738 e83b
00000160: d5c5 81bc 2309 28bd db36 033d 6d34 75bd
00000170: dd86 0abc 294e 1fbd bb0a a23c ae80 9abc
00000180: bab8 bcbc 35d9 d13c df4f ca3c 19bc b8bc
00000190: bf08 803c eb2b 603d bcc2 2b3d e01b 5b3d
000001a0: 6e2f 0a3d e631 66bd 600c 30bb 69b0 6e3c
000001b0: e961 1bbd d2ec 45bb 6922 38bd 465c 7dbd
000001c0: 7f1e dcbb 62d4 713c a92f 2c3d a4e1 4fbd
000001d0: 3cb6 91bd 61f0 a63c a35c 60bd dc49 893b
000001e0: a5f2 793d 4f5a babd 0ecb 89bc 9595 f7bc
000001f0: 7564 4cbc 1c8f 83bb 7360 6ebc 7880 70bd
00000200: b786 d5bc 2bb2 7e3a 0f12 35bd 35fe 3b3d
00000210: 1b04 66bd 184d 65bc 8f6e 943d 3250 16bd
00000220: 8906 3f3d 74e8 3b3d c212 823d f651 14bd
00000230: 58d6 673d 31d2 16bd 5289 aebc 1af7 323d
00000240: 49ce 2f3d c00a 88bd 75cb 8bbd c38c 22bd
00000250: 1b88 063d 972e c93b a276 26bd aee2 f7bc
00000260: 23ad f93c eccb 9fbd 0cb4 a5bc f84e afbd
00000270: 3de9 5c3d 94a6 6a3d 1714 783d f812 403d
00000280: 04ec 83bc 2090 2c3c 1570 6d3d 5319 cc3c
00000290: b129 5f3c b261 59bc 0853 de3b 25f2 343c
000002a0: 0db0 35bd c3d5 95bd 13ea 843c 7e43 1fbc
000002b0: 4449 9b3b 7193 4ebb c0db debc 0b09 293d
000002c0: cd2e 5ebc b6f8 0cbc 6294 19bd db42 05bd
000002d0: 6b89 c2bd ab21 24bc 241b afb9 9c22 92bd
000002e0: 34cc 283c bb08 1abd 93e4 08bc d497 ce3d
000002f0: a514 3fbd 8b0d 39bd 0cb5 91bd 35ce 08bd
00000300: 32a1 f73c 4b34 29be 7644 d53b 11f8 3fbc
00000310: 85f3 8bbd 9d8c dc3c ad36 17bd aca2 aa3c
00000320: 2b15 3c3d 8d36 2abd 47d4 ec3c c876 943b
00000330: b060 bd3c e9f2 48bd 8059 e3bc d367 d13b
00000340: 25e8 2fbd 1ccc f33b e587 eabc 2858 adbd
00000350: 6ea0 4d3d 45ee 02bc a7ca 213c a87d 0cbc
00000360: cbc7 4abd 807d 3e3d 248b 0b3d 1be8 4ebc
00000370: a5cd 5dbd 1042 883c bda0 bd3d b9c3 053d
00000380: d90c 16bd 7768 cf3b 5809 453d 58a7 0bbc
00000390: a93a b6bc 31bc 273d 7e1d 903c 0a4d adba
000003a0: eb84 393d c3b1 4dbc 0e82 58bd d211 29bb
000003b0: 426a 55bc 3d0c f6bc b8df 81bd c7f7 04bd
000003c0: c6d4 b5bc 45b7 1e3c b075 dd3b 118e 65bd
000003d0: f715 02bd d132 28bd fb2c 5d3d 9ad0 00be
000003e0: 6934 c8bc a8c5 9f3b 986c 00be f4a1 2dbc
000003f0: 0463 2a3c 6324 4c3c d158 153d c304 c9bc

model.4.bias f4 [80]
0.017470766 -0.050962158 -0.10189897 0.052742735 -0.020873139 -0.0819876 0.05901756 0.052280728
-0.027181108 -0.010501441 0.045290466 -0.008158231 -0.024716076 0.04088483 0.067568064 0.023929346
-0.103479914 -0.09144011 -0.18818313 -0.061553374 -0.00922107 0.016902912 -0.050929815 -0.09360555
-0.1183293 -0.10980436 0.049647134 -0.076361276 -0.0742306 0.018614132 -0.036440037 -0.1718855
-0.083787225 -0.08625032 0.05192362 -0.04655302 -0.045710117 -0.021884454 0.06452904 -0.06106841
-0.14394014 -0.21589568 -0.06171036 0.025548343 -0.010417546 -0.10665981 -0.063408196 -0.013528711
-0.013135323 -0.0403285 0.0515383 0.007244398 0.050542146 0.08605756 -0.05943373 -0.09738081
-0.0063338964 -0.07744008 0.0005533432 0.07333483 -0.053146306 -0.058435522 -0.01484246 -0.016270641
-0.06483219 0.036540937 -0.030906472 -0.03440818 -0.17663054 -0.06343127 -0.09323281 -0.03139902
-0.10293797 0.1111958 -0.16053471 0.044275515 -0.022732932 -0.06699098 -0.055227704 0.02379183
00000000: da1e 8f3c b2bd 50bd 68b0 d0bd c408 583d
00000010: 25fe aabc 1de9 a7bd 66bc 713d 5124 563d
00000020: eaaa debc 3c0e 2cbc 7f82 393d 1aaa 05bc
00000030: 5e79 cabc da76 273d 2061 8a3d 7a07 c43c
00000040: 47ed d3bd f444 bbbd 14b3 40be 641f 7cbd
00000050: f913 17bc fa77 8a3c c89b 50bd 44b4 bfbd
00000060: a256 f2bd 1ce1 e0bd cb5a 4b3d 4d63 9cbd
00000070: 3606 98bd aa7c 983c 2642 15bd c102 30be
00000080: a398 abbd 02a4 b0bd ddad 543d 61ae 3ebd
00000090: 883a 3bbd 0747 b3bc cd27 843d de22 7abd
000000a0: 0b65 13be c213 5dbe 01c4 7cbd c24a d13c
000000b0: 5bae 2abc 7570 dabd 28dc 81bd 87a7 5dbc
000000c0: 8a35 57bc 7f2f 25bd d319 533d 6a62 ed3b
000000d0: 4805 4f3d f23e b03d c870 73bd 976f c7bd
000000e0: 938c cfbb e898 9ebd 3c0e 113a 9230 963d
000000f0: f1af 59bd 165a 6fbd ca2d 73bc 024a 85bc
00000100: bdc6 84bd f3ab 153d 922f fdbc 97ef 0cbd
00000110: a3de 34be 41e8 81bd d8f0 bebd 429c 00bd
00000120: 24d1 d2bd a0ba e33d 3663 24be 3e5a 353d
00000130: 6a3a babc 9132 89bd 7236 62bd 15e7 c23c

model.6.weight f4 [80]
1.0313951 1.0204856 0.9961412 1.0036131 1.0131887 1.0289382 0.9771326 1.0647938
1.0129688 1.0121976 0.9999222 1.0728898 1.0294527 1.085633 1.0310537 0.9936995
1.0177858 1.1518047 1.0305431 0.9922892 1.0664457 1.0251577 1.0425258 1.0932096
1.1320852 1.1401765 1.0764096 1.0397115 0.98658794 0.9923385 1.0866123 1.0943242
1.062246 1.0638611 0.9521596 0.99339014 1.0620412 1.0220795 1.0042841 0.99509984
0.965676 1.1094567 1.0339047 1.02111 0.98309624 1.1040307 0.98170495 0.98441786
1.0632213 1.2474831 1.0661634 1.0082257 1.0468214 1.0478805 1.0227376 1.0928845
1.0182128 1.068523 1.0138099 1.0987655 1.0181341 1.0593163 1.0243437 1.0200987
1.0538311 0.995257 0.9564102 0.99950147 1.0500476 1.0899934 1.0652632 0.9860585
1.1641402 1.0623077 1.0082772 1.086046 1.1282817 1.0121658 1.1283338 1.0629327
00000000: c104 843f 469f 823f 1c03 7f3f 6576 803f
00000010: 2bb0 813f 3fb4 833f 5d25 7a3f 2a4b 883f
00000020: f6a8 813f b18f 813f e7fa 7f3f 7454 893f
00000030: 1bc5 833f 06f6 8a3f 91f9 833f 1763 7e3f
00000040: ce46 823f 566e 933f d6e8 833f aa06 7e3f
00000050: 4b81 883f 5e38 833f 7c71 853f 4bee 8b3f
00000060: 2be8 903f 4ef1 913f cac7 893f 4415 853f
00000070: 0791 7c3f e509 7e3f 1d16 8b3f d112 8c3f
00000080: adf7 873f 9a2c 883f bbc0 733f d14e 7e3f
00000090: f7f0 873f 80d3 823f 628c 803f ddbe 7e3f
000000a0: 8b36 773f ad02 8e3f fd56 843f bcb3 823f
000000b0: 32ac 7b3f e150 8d3f 0451 7b3f cf02 7c3f
000000c0: a317 883f 87ad 9f3f 0b78 883f 8a0d 813f
000000d0: 3efe 853f f320 863f 11e9 823f a4e3 8b3f
000000e0: cc54 823f 5dc5 883f 86c4 813f 59a4 8c3f
000000f0: 3852 823f ad97 873f b21d 833f 9892 823f
00000100: f0e3 863f 2ac9 7e3f 4dd7 743f 54df 7f3f
00000110: f667 863f e784 8b3f 8b5a 883f 546e 7c3f
00000120: 8c02 953f b3f9 873f 3a0f 813f 8e03 8b3f
00000130: 896b 903f a68e 813f 3e6d 903f 2e0e 883f

model.6.bias f4 [80]
0.009133147 -0.00046477836 0.061386213 0.05958011 0.0271932 0.08505619 0.031510524 -0.013441144
-0.025472492 0.05842092 0.02107272 0.053839087 -0.008059671 0.13931763 0.06465304 -0.04666065
-0.062496446 0.062959656 0.05041254 0.0037793608 0.1444534 0.084572114 -0.0040719197 0.014986243
0.036363296 0.059583 0.119189665 0.10269489 0.097735114 -0.032683697 -0.06904744 0.039588347
-0.010428987 -0.06077825 0.010364385 0.037135392 0.014743778 0.05423141 0.09344756 -0.06503169
0.025893934 0.09983029 0.05173695 0.01009523 0.0012971351 0.005939582 0.02603912 0.042458463
0.09657517 0.10589969 0.027636118 -0.054148562 0.08408509 0.095997006 -0.011732817 -0.05774267
0.007817321 -0.009711483 -0.03378057 0.12173375 0.08060387 -0.0073885284 -0.03993882 -0.03389321
-0.0076693166 0.037943196 0.07184797 -0.009686767 -0.056039914 0.01921204 -0.10049872 0.025677525
-0.054252658 0.11924843 0.030356701 0.12551387 -0.031218974 -0.002091309 -0.0056931763 0.087668605
00000000: 32a3 153c 7fad f3b9 1c70 7b3d 460a 743d
00000010: 46c4 de3c f131 ae3d 2e11 013d 3e38 5cbc
00000020: b0ab d0bc c64a 6f3d b2a0 ac3c 6086 5c3d
00000030: b60c 04bc 48a9 0e3e d068 843d 3d1f 3fbd
00000040: 46fc 7fbd fef0 803d 617d 4e3d 27af 773b
00000050: 98eb 133e 2534 ad3d bd6d 85bb dc88 753c
00000060: aef1 143d 4e0d 743d b619 f43d b351 d23d
00000070: 5929 c83d 57df 05bd bf68 8dbd 6427 223d
00000080: 58de 2abc 9df2 78bd 62cf 293c 481b 183d
00000090: e38f 713c c121 5e3d 6f61 bf3d 562f 85bd
000000a0: 841f d43c d373 cc3d 20ea 533d 7766 253c
000000b0: a204 aa3a d3a0 c23b fe4f d53c ede8 2d3d
000000c0: 34c9 c53d f0e1 d83d 2465 e23c e2ca 5dbd
000000d0: ce34 ac3d 149a c43d 003b 40bc 9483 6cbd
000000e0: 3914 003c e91c 1fbc 7f5d 0abd 8b4f f93d
000000f0: a413 a53d 781b f2bb e396 23bd 9bd3 0abd
00000100: e44e fbbb 536a 1b3d 0725 933d 3fb5 1ebc
00000110: 1c8a 65bd 9162 9d3c 46d2 cdbd ac59 d23c
00000120: 0938 5ebd 8538 f43d 9eae f83c b586 003e
00000130: efbe ffbc 580e 09bb d38d babb 998b b33d

model.6.running_mean f4 [80]
0.29500955 0.124183446 0.36018127 0.21717454 0.3490275 0.14500794 0.42685983 0.48609293
0.21572892 0.280066 0.5119279 0.24412136 0.36949623 0.2877224 0.29058164 0.2726396
0.13703458 0.07037317 0.08432104 0.22592504 0.25454164 0.1687993 0.21521932 0.091772705
0.03184993 0.06174635 0.47156125 0.1675223 0.24030729 0.15402709 0.09176732 0.07489726
0.23726247 0.10363393 0.28156763 0.20367622 0.13720831 0.18385829 0.36232343 0.20400034
0.18032746 0.02084863 0.2505649 0.21265084 0.21114823 0.05831395 0.24794513 0.46601072
0.18362719 0.054610193 0.18906075 0.25121164 0.20015955 0.3642703 0.14924757 0.084067084
0.16358122 0.11054741 0.34429586 0.35926825 0.09131027 0.26739416 0.3174895 0.13601524
0.17181836 0.29626715 0.3211766 0.3365414 0.0696022 0.10655931 0.2432101 0.5317742
0.07147082 0.33788297 0.21891187 0.40387496 0.103943296 0.20506549 0.086128026 0.12520708
00000000: 7e0b 973e e453 fe3d ae69 b83e 0163 5e3e
00000010: bcb3 b23e f67c 143e 5f8d da3e 2ce1 f83e
00000020: 0be8 5c3e d064 8f3e b50d 033f f3fa 793e
00000030: 9c2e bd3e 5a50 933e 1ec7 943e 6b97 8b3e
00000040: cb52 0c3e cf1f 903d 82b0 ac3d e558 673e
00000050: 4853 823e b9d9 2c3e 7462 5c3e 54f3 bb3d
00000060: 1275 023d bee9 7c3d 7a70 f13e f78a 2b3e
00000070: 1d13 763e 47b9 1d3e 81f0 bb3d bc63 993d
00000080: eff4 723e 073e d43d a229 903e 8090 503e
00000090: 5680 0c3e 5945 3c3e 7582 b93e 77e5 503e
000000a0: c3a7 383e bfca aa3c 0b4a 803e 24c1 593e
000000b0: 3e37 583e 9cda 6e3d 54e5 7d3e f598 ee3e
000000c0: c408 3c3e f0ae 5f3d 2499 413e d09e 803e
000000d0: a0f6 4c3e a381 ba3e 5bd4 183e 5d2b ac3d
000000e0: d681 273e ae66 e23d 8c47 b03e 02f2 b73e
000000f0: e100 bb3d e3e7 883e fc8d a23e 9447 0b3e
00000100: 27f1 2f3e 54b0 973e 4271 a43e 284f ac3e
00000110: 998b 8e3d c43b da3d 120c 793e 5b22 083f
00000120: 4b5f 923d fffe ac3e 6f2a 603e b3c8 ce3e
00000130: 39e0 d43d b0fc 513e e463 b03d 4936 003e

model.6.running_var f4 [80]
0.12890612 0.063724 0.7230808 0.1014282 0.23039071 0.08102994 0.22091022 0.35375932
0.13440979 0.108335674 1.4619994 0.13077287 0.30496022 0.14841466 0.10278304 0.18959515
0.07361406 0.03972622 0.042367425 0.100295514 0.118012145 0.058226287 0.09809588 0.03435428
0.014343355 0.030073898 0.22878602 0.07895598 0.14287852 0.07029735 0.042124838 0.043310434
0.13966483 0.04957288 0.13147125 0.09801986 0.07616676 0.06184977 0.12814032 0.21727233
0.094349794 0.006696186 0.19911422 0.09868031 0.11575323 0.03618276 0.13975933 0.62271726
0.07525528 0.022456186 0.05795949 0.20208094 0.060112223 0.13436352 0.06999943 0.051544856
0.08229007 0.07588279 0.19250184 0.12239234 0.036728445 0.2548767 0.23597215 0.06570356
0.08892773 0.09637564 0.21007387 0.30392995 0.05154279 0.048161007 0.17091236 0.54490703
0.036943197 0.13114491 0.3716318 0.13333714 0.041776843 0.20043477 0.051188096 0.043800298
00000000: f7ff 033e ba81 823d d31b 393f 97b9 cf3d
00000010: 8beb 6b3e 06f3 a53d 4a36 623e f11f b53e
00000020: b8a2 093e 18df dd3d cc22 bb3f 53e9 053e
00000030: bf23 9c3e 03fa 173e ea7f d23d 3b25 423e
00000040: f8c2 963d f6b7 223d 7789 2d3d bc67 cd3d
00000050: 5ab0 f13d b07e 6e3d 7ee6 c83d 13b7 0c3d
00000060: 6400 6b3c 895d f63c e246 6a3e acb3 a13d
00000070: bf4e 123e 0ff8 8f3d 188b 2c3d 4866 313d
00000080: 4c04 0f3e ef0c 4b3d 66a0 063e a3be c83d
00000090: 51fd 9b3d 2f56 7d3d 3737 033e a37c 5e3e
000000a0: 773a c13d ae6b db3b 99e4 4b3e e718 ca3d
000000b0: 0810 ed3d 6034 143d 121d 0f3e 666a 1f3f
000000c0: 711f 9a3d 09f6 b73c ee66 6d3d 4eee 4e3e
000000d0: 3c38 763d 9796 093e dc5b 8f3d b320 533d
000000e0: b287 a83d 7068 9b3d 341f 453e d6a8 fa3d
000000f0: 9170 163d 337f 823e afa2 713e 978f 863d
00000100: be1f b63d 9760 c53d 9b1d 573e b59c 9b3e
00000110: 881e 533d 7a44 453d a603 2f3e 077f 0b3f
00000120: c051 173d da4a 063e 8646 be3e 8889 083e
00000130: 321e 2b3d c63e 4d3e 9caa 513d f167 333d
