backend/marketValuemodel/market_value_predictor.pth (torch, 154986 bytes, 15 tensors)

model.0.weight f4 [171, 39]
0	0xbc094b81	-0.008379818
1	0xbdcc86a3	-0.099866174
2	0x3e0acb20	0.13554049
3	0xbb3f5bfa	-0.002919911
4	0x3d708776	0.058722936
5	0x3c82eddc	0.01598256
6	0x3d871eb8	0.06597656
7	0x3cbeaf95	0.023277083
8	0xbd538dae	-0.05164879
9	0xbe2fbb1a	-0.17161217
10	0x3e54a9dc	0.20767921
11	0xbe027114	-0.12738448
12	0x3cfa4218	0.030549094
13	0x3b76f26b	0.0037681113
14	0x3cf1b156	0.029503506
15	0xbcdfcf58	-0.027320549
16	0x3c592830	0.01325421
17	0x3cbdb3ee	0.023157086
18	0x3e355a7d	0.177103
19	0x3ddb8cb8	0.10720199
20	0xbdf7c411	-0.120979436
21	0x3cca4d73	0.024695134
22	0x3cb316ff	0.021861551
23	0x3de66bd1	0.11251033
24	0xbdec79aa	-0.11546643
25	0x3c38afc7	0.011272377
26	0x3c82f5b8	0.015986308
27	0xbcd491ea	-0.025948483
28	0xbc6e18cc	-0.014532279
29	0xbe2cec7d	-0.16887088
30	0xbe515a0e	-0.2044451
31	0x3bef5882	0.007304252
32	0xbce811b3	-0.028328752
33	0xbd82db39	-0.0638947
34	0x3dd7a918	0.10530299
35	0xbd5e22b7	-0.054232325
36	0xbd76e944	-0.060281053
37	0x3c9eb6b6	0.019374233
38	0x3ca8009c	0.020508103
39	0x3e09ab31	0.1344421
40	0x3e48efee	0.19622776
41	0x3d47dab5	0.04879256
42	0xbdc0a2e3	-0.09406068
43	0xbd679388	-0.05653718
44	0x3d8f5589	0.069987364
45	0xbe24a779	-0.16079511
46	0xbe3a75f3	-0.18209057
47	0xbc861d35	-0.016371349
48	0xbd5f0d7c	-0.05445622
49	0xbcc8b63e	-0.024500962
50	0x3e3a3f6f	0.1818826
51	0xbde0f1d0	-0.10983622
52	0xbe1b308c	-0.15155238
53	0x3b8f4c74	0.0043731276
54	0x3d715376	0.058917485
55	0x3e47f008	0.19525158
56	0x3da5ff82	0.08105375
57	0x3d776aba	0.060404517
58	0xbd8e70ff	-0.06955146
59	0x3b285c9b	0.0025689963
60	0x3cb16d3f	0.021658538
61	0xbc33d497	-0.010975978
62	0x3d26a9cb	0.04068927
63	0xbe0eb2b6	-0.1393536
64	0xbd57f2df	-0.052721854
65	0x3c6e179c	0.014531996
66	0xbd33d9ba	-0.043908812
67	0xbdb76657	-0.08955067
68	0x3dc86193	0.09784236
69	0xbdc0dae5	-0.09416751
70	0x3e169101	0.14703752
71	0xbc824b8c	-0.015905164
72	0x3d8780a3	0.066163324
73	0xbe444514	-0.19166976
74	0x3d88ed33	0.06685867
75	0xbcff613d	-0.031174297
76	0xbd08c309	-0.033389125
77	0x3dd087e3	0.10182168
78	0x3c66f799	0.014097118
79	0xbaeb4506	-0.0017949648
80	0xbb934bad	-0.0044951052
81	0x3ccc9b61	0.024976434
82	0xbd340e21	-0.043958787
83	0x3cbf136d	0.023324693
84	0x3e2d0dae	0.1689975
85	0x3a2efdcf	0.00066753937
86	0xbe158091	-0.14599825
87	0xbddb6ed5	-0.10714499
88	0x3e6395a5	0.22225054
89	0xbd5aa83e	-0.053383105
90	0xbe146462	-0.14491418
91	0x3d80c71e	0.062879786
92	0xbd45918a	-0.0482345
93	0x3c393dde	0.011306254
94	0x3c87ab00	0.016561031
95	0xbd4050a3	-0.0469519
96	0xbdc0529f	-0.09390759
97	0x3df24256	0.11829059
98	0x3d62c16f	0.055360254
99	0xbd754f61	-0.059890155
100	0x3cf399d1	0.029736431
101	0x3dd1d74f	0.10246145
102	0xbe250f05	-0.16119011
103	0xbb7f5b1f	-0.0038964225
104	0x3c8f0bc8	0.017461672
105	0x3dc9b390	0.09848702
106	0xbe1713d4	-0.14753658
107	0xbe3b5519	-0.18294181
108	0x3dd1c8a4	0.10243347
109	0x3d7a6ece	0.061140828
110	0xbdfc2b46	-0.12312941
111	0x3e112c9e	0.14177176
112	0x3da84eec	0.08218178
113	0xbda6460a	-0.08118828
114	0x3cfc08db	0.030765941
115	0x3e54940b	0.20759599
116	0x3c914c52	0.017736588
117	0x3ddfec03	0.109336875
118	0x3bf4419c	0.0074541103
119	0x3d08314a	0.03325013
120	0x3d44df56	0.048064552
121	0x3d083cde	0.033261172
122	0xbd887c81	-0.06664372
123	0x3ce041f0	0.027375191
124	0xbdff4405	-0.124641456
125	0xbd9604fe	-0.07325171
126	0xb84405df	-4.673551e-05
127	0x3d4dc669	0.050238047
128	0x3d2e8b42	0.042613275
129	0xbd99d426	-0.07511167
130	0xbe13154d	-0.14363594
131	0xbdde2962	-0.10847737
132	0x3d789c3a	0.060695864
133	0xbe5b1f33	-0.2139862
134	0xbd198f65	-0.037490267
135	0xbe2edcff	-0.17076491
136	0x3ddfb563	0.10923269
137	0x3d9e14ee	0.07718836
138	0x3d4e1ef5	0.05032249
139	0xbd92d0ed	-0.07168756
140	0x3b7457b1	0.0037283713
141	0x3d8f3f03	0.069944404
142	0x3dccb0c0	0.0999465
143	0x3db4e09b	0.088319026
144	0x3e2ea2d2	0.17054299
145	0x3e2acb9f	0.16679238
146	0x3d9154ce	0.07096253
147	0x3e515372	0.20441988
148	0xbc92daed	-0.017926658
149	0x3d37c3fa	0.044864632
150	0xbd0e5be6	-0.03475561
151	0x3d5c8fb4	0.053847983
152	0xbc6f1468	-0.014592268
153	0x3d55a20e	0.0521565
154	0xbd7a2ad8	-0.061076015
155	0xbd7a03d2	-0.0610388
156	0xbb98588a	-0.0046492266
157	0xbdec2b1e	-0.115316615
158	0xbd299b3c	-0.04140781
159	0x3df413bb	0.11917826
160	0xbd644a36	-0.055734836
161	0xbe11ff94	-0.14257652
162	0xbe684127	-0.22681104
163	0xbdfb67e3	-0.12275674
164	0x3c395952	0.0113127995
165	0xbd9b3408	-0.075782835
166	0x3ca99b2c	0.020703875
167	0x3d751db7	0.05984279
168	0xbdef62fa	-0.116888
169	0x3e07a3ca	0.13246074
170	0x3d07ce77	0.033155885
171	0xbddcc90d	-0.10780535
172	0xbda55217	-0.08072298
173	0x3c48fb25	0.012266909
174	0xbe41be43	-0.18920235
175	0xbdccb263	-0.09994962
176	0x3cd0cdf8	0.025488839
177	0xbd1aca0c	-0.037790343
178	0x3d042312	0.03226001
179	0xbcfc61e2	-0.030808393
180	0x3db5ef74	0.08883563
181	0x3e7f0959	0.2490591
182	0x3e5dc6e6	0.21657905
183	0xbbde1392	-0.0067772353
184	0x3e41f508	0.18941128
185	0x3e3d4719	0.18484153
186	0x3e3e0d43	0.18559746
187	0x3d2594d1	0.040425126
188	0xbd621ac7	-0.055201318
189	0xbd93da06	-0.07219319
190	0xbdb97c10	-0.09056866
191	0xbe27eaf3	-0.1639822
192	0x3d88302e	0.066498145
193	0xbd9c2312	-0.07623877
194	0x3d37ce2c	0.044874355
195	0xbd9c7f49	-0.07641465
196	0xbda0f14e	-0.07858525
197	0x3dcb489d	0.09925959
198	0xbdb7ce15	-0.08974854
199	0xbe71d685	-0.23616989
200	0xbc2430ac	-0.01002137
201	0x3cca4c08	0.024694458
202	0xbd967f94	-0.07348552
203	0x3dfbf3a2	0.12302329
204	0xbd84bfb6	-0.064818785
205	0x3d8839d6	0.06651656
206	0x3d9efd5f	0.077631705
207	0x3c4e324e	0.012585236
208	0x3e0a8376	0.13526711
209	0x3e1e49f8	0.15457904
210	0x3d7b4963	0.061349284
211	0x3d93eb39	0.072225995
212	0xbd2de012	-0.04245002
213	0x3d1edfb2	0.03878755
214	0xbe358f7e	-0.17730519
215	0x3d38dcba	0.045132376
216	0x3d8f6297	0.070012264
217	0x3e36fd5e	0.1787009
218	0x3ce96b55	0.028493563
219	0xbdb10a5e	-0.086445555
220	0xbd9c80b3	-0.07641735
221	0xbd7d4788	-0.061835796
222	0xbe2785a6	-0.16359577
223	0xbda345d6	-0.079723045
224	0x3d57da4f	0.05269843
225	0xbe68d2bb	-0.22736637
226	0xbd4f3225	-0.05058493
227	0x3d8a688a	0.067582205
228	0xbd7b3fc1	-0.061340097
229	0x3d287a72	0.041132398
230	0x3c03c5cc	0.008042764
231	0xbc8b3bf9	-0.01699637
232	0x3d3e53cb	0.04646663
233	0xbc35c3f5	-0.011094083
234	0xbe10cf31	-0.14141537
235	0x3dddcdc3	0.108302616
236	0xbcba31e2	-0.022728864
237	0x3d95bea7	0.07311755
238	0x3c1173d1	0.00887771
239	0x3dd79c4a	0.10527857
240	0x3d71281c	0.058876142
241	0xbe2d4271	-0.16919877
242	0xbd82495e	-0.0636165
243	0x3e5906da	0.2119402
244	0xbd28a406	-0.04117205
245	0x3dd88f52	0.10574211
246	0x3c402136	0.011726668
247	0x3d6a0f65	0.057143588
248	0xbd8f8660	-0.07008052
249	0x3dcf03ff	0.10108184
250	0xbdef825c	-0.11694786
251	0x3d98d0cb	0.07461699
252	0xbc81ef29	-0.01586111
253	0x3d989f70	0.07452285
254	0xbd29c4c1	-0.041447405
255	0x3db83335	0.08994142

model.0.bias f4 [171]
0	0xbb487b35	-0.0030591015
1	0x3dcc9d6e	0.09990965
2	0x3cea16b9	0.028575288
3	0x3b79e6e5	0.0038132009
4	0x3d898488	0.067147315
5	0x3d5fedb4	0.05467005
6	0xbdf41154	-0.119173676
7	0x3ddf9274	0.109166056
8	0xbe2228b0	-0.15835834
9	0xbe922421	-0.2854319
10	0xbe126d8b	-0.142996
11	0x3debbe4e	0.11510907
12	0xbd95c916	-0.07313745
13	0xbde0bec5	-0.109738864
14	0x3da260b5	0.07928602
15	0xbc8ccbab	-0.01718696
16	0xbd7cffc7	-0.061767366
17	0xbbe83c6c	-0.007087281
18	0x3d87a4a6	0.06623201
19	0xbeb5fced	-0.3554453
20	0x3d8ca0cc	0.06866607
21	0xbdd05a43	-0.10173466
22	0xbd481cde	-0.048855655
23	0x3d4d883e	0.05017876
24	0x3dae9c25	0.08525876
25	0x3dd8c669	0.10584719
26	0x3c8732ec	0.016503774
27	0xbe599206	-0.2124711
28	0x3d8e30d3	0.06942906
29	0x3d9d4c89	0.076806135
30	0x3cb3b83e	0.02193844
31	0xbd8cf392	-0.06882395
32	0x3dcb5e4d	0.09930096
33	0xbcf3cf9a	-0.029762078
34	0x3cbd68af	0.023121206
35	0x3d662d28	0.056195408
36	0x3c3fbc4a	0.011702606
37	0x3de1698e	0.11006461
38	0x3e161af4	0.1465872
39	0x3c813fbb	0.01577746
40	0x3e503c55	0.20335515
41	0x3ca3c8ff	0.019993303
42	0x3ddf4ed8	0.1090371
43	0xbdc0564a	-0.09391458
44	0xbe468280	-0.1938572
45	0xbe08259e	-0.132956
46	0x3e1d1bb2	0.15342596
47	0xbe070ec0	-0.1318922
48	0x3dcacb0c	0.09902009
49	0x3cdf6354	0.027269043
50	0x3d5d42d0	0.054018795
51	0x3d6db35a	0.05803237
52	0xbc4bda34	-0.01244216
53	0x3e38562a	0.18001619
54	0xbe2187a8	-0.15774405
55	0xbe8aeb8c	-0.27132833
56	0xbe1bea38	-0.15226066
57	0x3d4ea47c	0.050449833
58	0x3e4db70b	0.20089357
59	0xbce655c5	-0.02811707
60	0x3d88b855	0.066757835
61	0xbcf80faa	-0.030280907
62	0x3d9e6476	0.07734005
63	0x3dbf5f3f	0.093443386
64	0x3cde74c6	0.027155291
65	0x3dc75413	0.09732833
66	0xbdc8e686	-0.09809594
67	0x3ca3c0e4	0.019989438
68	0x3d9d1a18	0.076709926
69	0x3d9da579	0.07697577
70	0x3d62423a	0.05523894
71	0x3dde4562	0.108530775
72	0x3e4bf5b6	0.1991795
73	0xbd222305	-0.03958418
74	0x3c40cbf9	0.011767381
75	0xbde5148e	-0.11185561
76	0x3de93663	0.113873266
77	0x3dd1a58f	0.10236656
78	0x3e2d351a	0.16914788
79	0xbd46a7df	-0.048499938
80	0x3e0dec4c	0.13859671
81	0xbe697230	-0.22797465
82	0xbc87b2c9	-0.016564744
83	0xbe37d8f8	-0.17953861
84	0x3dba32fe	0.09091757
85	0x3d8e2740	0.0694108
86	0x3de88bc1	0.11354781
87	0x3d8faf19	0.07015819
88	0x3e26c1f6	0.16284928
89	0xbe42bffd	-0.1901855
90	0x3e7e673d	0.2484407
91	0xbbca97f3	-0.0061826645
92	0x3df6d3c1	0.120521076
93	0xbd90c356	-0.070685074
94	0x3c5099e5	0.012732004
95	0x3db6c65b	0.08924552
96	0x3e057dbc	0.13036245
97	0x3cd457be	0.025920745
98	0xbd7c0987	-0.061532523
99	0x3c7de565	0.015496586
100	0xbc96bbc2	-0.018400077
101	0x3bb90e9a	0.0056474926
102	0x3d946492	0.07245745
103	0x3dee0352	0.11621727
104	0x3dff7cbb	0.12474962
105	0xbe3414ce	-0.17586061
106	0x3cc8fa0f	0.0245333
107	0xbd9d4221	-0.07678629
108	0x3e5f2b8d	0.21793957
109	0x3e09502a	0.13409486
110	0xbccd96bd	-0.025096292
111	0x3da3ff35	0.08007661
112	0x3d26e5c5	0.04074647
113	0xbd9f2af4	-0.077718645
114	0xbe0652fe	-0.13117597
115	0x3d2d13e1	0.042255286
116	0x3dff3c26	0.12462644
117	0xbd8d276f	-0.06892287
118	0x3e03231d	0.12806363
119	0x3e6206c1	0.22072889
120	0x3e5f4517	0.218037
121	0x3d12da3e	0.035852663
122	0xbd326673	-0.043554734
123	0xbd089177	-0.03334185
124	0x3e15e353	0.14637499
125	0xbe75d9e7	-0.24008904
126	0xbd29b887	-0.041435745
127	0x3cd93e78	0.026519045
128	0xbe6aa692	-0.22915104
129	0x3be21d57	0.0069004702
130	0x3df75023	0.12075832
131	0xbddda288	-0.10822016
132	0x3e127675	0.14303
133	0x3e74b5f8	0.2389754
134	0x3df231ad	0.11825881
135	0xbd4cc08b	-0.04998831
136	0x3e0b1aed	0.1358449
137	0x3e16de6d	0.14733286
138	0x3e0a88d7	0.13528763
139	0xbe15aa0b	-0.14615647
140	0xbde28973	-0.110613726
141	0x3e162f56	0.14666495
142	0x3e7c78a8	0.24655402
143	0x3db1c673	0.08680429
144	0x3e2d8d82	0.16948512
145	0xbd9beb38	-0.07613224
146	0xbd6f30aa	-0.05839602
147	0x3d3b7679	0.04576728
148	0x3d0831ef	0.033250745
149	0xbdc65063	-0.09683301
150	0x3db81ca3	0.08989837
151	0xbc94e6d3	-0.018176472
152	0x3d048ab0	0.032358825
153	0x3c93ea5d	0.018056089
154	0xbe34a55e	-0.17641208
155	0x3d67737e	0.056506626
156	0x3e315c14	0.17320281
157	0x3d8bb6c7	0.068219714
158	0xbcb61e2b	-0.022231182
159	0xbdcaf47e	-0.099099144
160	0xbd0b2026	-0.033966206
161	0x3d4ed4bd	0.05049585
162	0xbe581c0d	-0.2110445
163	0x3de434c0	0.11142874
164	0xbcece53c	-0.028917901
165	0x3c4a22f9	0.01233744
166	0xbe3d187f	-0.18466376
167	0xbe07e5bf	-0.13271235
168	0xba7b0c7d	-0.0009576751
169	0x3e11fda6	0.14256915
170	0xbdca8cba	-0.09890123

model.2.weight f4 [171]
0	0x3f7029df	0.9381389
1	0x3f7e1ddc	0.9926431
2	0x3f7c577f	0.9857101
3	0x3f80609c	1.0029483
4	0x3f81f948	1.01542
5	0x3f81d010	1.0141621
6	0x3f849b75	1.0359942
7	0x3f827418	1.0191679
8	0x3f8512f3	1.0396408
9	0x3f83e848	1.0305262
10	0x3f768652	0.96298707
11	0x3f719a03	0.9437563
12	0x3f6f01fc	0.933624
13	0x3f7745b9	0.96590763
14	0x3f823f3c	1.0175548
15	0x3f7d2465	0.9888366
16	0x3f81feb1	1.0155851
17	0x3f8020c9	1.0010005
18	0x3f70b204	0.9402163
19	0x3f81c72e	1.013891
20	0x3f823f47	1.0175561
21	0x3f84e30d	1.038179
22	0x3f819f0a	1.012666
23	0x3f7678f4	0.9627831
24	0x3f824912	1.0178549
25	0x3f870bad	1.0550438
26	0x3f824d64	1.0179868
27	0x3f7c8f93	0.98656577
28	0x3f73d163	0.95241374
29	0x3f846557	1.0343426
30	0x3f6dac89	0.9284139
31	0x3f7487b4	0.95519567
32	0x3f821427	1.01624
33	0x3f7abe32	0.97946465
34	0x3f70f839	0.9412876
35	0x3f71aa18	0.9440017
36	0x3f7bc529	0.9834772
37	0x3f7d13f7	0.9885859
38	0x3f70348b	0.93830174
39	0x3f70bac5	0.9403499
40	0x3f81a24f	1.0127658
41	0x3f814158	1.0098066
42	0x3f72430c	0.94633555
43	0x3f8172a2	1.0113108
44	0x3f78bade	0.97160137
45	0x3f833564	1.0250669
46	0x3f801d58	1.0008955
47	0x3f894f2d	1.0727288
48	0x3f833608	1.0250864
49	0x3f7c1226	0.9846519
50	0x3f7d663d	0.9898413
51	0x3f74f3b3	0.95684355
52	0x3f8286e0	1.019741
53	0x3f7ea02a	0.9946314
54	0x3f74e4ba	0.9566151
55	0x3f8a863a	1.0822213
56	0x3f7572d5	0.95878345
57	0x3f83bac7	1.0291375
58	0x3f80cfe7	1.0063447
59	0x3f8410f1	1.031767
60	0x3f804f8f	1.0024279
61	0x3f813905	1.0095526
62	0x3f80173f	1.0007094
63	0x3f82f1e8	1.0230074
64	0x3f7d4e9d	0.9894808
65	0x3f742543	0.95369357
66	0x3f854914	1.0412927
67	0x3f83dcea	1.0301793
68	0x3f8423f2	1.032347
69	0x3f78134d	0.9690445
70	0x3f783883	0.9696123
71	0x3f7c2302	0.9849092
72	0x3f7d5c40	0.9896889
73	0x3f76d611	0.9642039
74	0x3f778980	0.96694183
75	0x3f74cf1a	0.9562851
76	0x3f7bf440	0.9841957
77	0x3f7e30ab	0.9929301
78	0x3f825d0a	1.0184643
79	0x3f79059e	0.97274196
80	0x3f7f3bf2	0.99700844
81	0x3f80b014	1.0053735
82	0x3f801a25	1.0007979
83	0x3f836edc	1.0268207
84	0x3f7e0caa	0.99238074
85	0x3f83f45c	1.0308948
86	0x3f80a085	1.0048987
87	0x3f7dc972	0.99135506
88	0x3f738442	0.95123684
89	0x3f78a639	0.97128636
90	0x3f7c4a79	0.98551136
91	0x3f707fd2	0.9394504
92	0x3f83ef7f	1.0307463
93	0x3f7904b7	0.9727282
94	0x3f7c77cd	0.986203
95	0x3f7fccef	0.9992208
96	0x3f847f73	1.0351394
97	0x3f81b9a9	1.0134784
98	0x3f78453d	0.9698065
99	0x3f80622b	1.0029958
100	0x3f7d3c65	0.9892028
101	0x3f791273	0.97293776
102	0x3f7fb701	0.99888617
103	0x3f85ae04	1.044373
104	0x3f760d2d	0.96113855
105	0x3f827035	1.0190493
106	0x3f810077	1.0078267
107	0x3f7db078	0.99097395
108	0x3f83d9ea	1.0300877
109	0x3f852e1a	1.0404694
110	0x3f80098e	1.0002916
111	0x3f824ebb	1.0180277
112	0x3f80b364	1.0054746
113	0x3f81fdb2	1.0155547
114	0x3f85afb8	1.044425
115	0x3f78e238	0.9722018
116	0x3f83951e	1.0279882
117	0x3f7765bc	0.9663961
118	0x3f6c8712	0.923936
119	0x3f81c4f7	1.0138234
120	0x3f86e042	1.0537188
121	0x3f81fd49	1.0155421
122	0x3f81ec2a	1.0150197
123	0x3f7d0b33	0.98845214
124	0x3f85d69d	1.045612
125	0x3f838c8d	1.0277268
126	0x3f80b60f	1.005556
127	0x3f711ef4	0.94187856
128	0x3f7ccec4	0.98753
129	0x3f7e5c20	0.9935932
130	0x3f853899	1.0407897
131	0x3f848930	1.0354366
132	0x3f7b4e1a	0.9816605
133	0x3f82564b	1.0182585
134	0x3f81191e	1.008579
135	0x3f839497	1.0279721
136	0x3f7e6b0a	0.9938208
137	0x3f81d548	1.0143213
138	0x3f818091	1.011736
139	0x3f79e455	0.9761403
140	0x3f81d948	1.0144434
141	0x3f6ff1ec	0.9372852
142	0x3f82f06f	1.0229625
143	0x3f7d96aa	0.9905802
144	0x3f74af46	0.95579946
145	0x3f839def	1.0282573
146	0x3f79d6d5	0.9759343
147	0x3f83d6dc	1.0299945
148	0x3f825f71	1.0185376
149	0x3f78bf91	0.9716731
150	0x3f839093	1.0278496
151	0x3f803463	1.0015987
152	0x3f8371f2	1.0269148
153	0x3f81e790	1.0148792
154	0x3f76554a	0.9622389
155	0x3f88edee	1.069761
156	0x3f808b22	1.004246
157	0x3f73f09f	0.95289034
158	0x3f7f5046	0.9973186
159	0x3f8365bb	1.0265421
160	0x3f7e7a3f	0.9940528
161	0x3f72ac06	0.94793737
162	0x3f793424	0.97345185
163	0x3f853392	1.0406363
164	0x3f7ccfea	0.9875475
165	0x3f7a57cf	0.97790235
166	0x3f73a976	0.9518045
167	0x3f7b674a	0.9820448
168	0x3f6efccd	0.93354493
169	0x3f6a3410	0.9148569
170	0x3f6e8cb9	0.93183476

model.2.bias f4 [171]
0	0xbbba1bb7	-0.0056795734
1	0xbdf0953c	-0.11747214
2	0xbbcf5259	-0.0063269553
3	0x3c404f1c	0.011737611
4	0x3d2e0205	0.042482395
5	0x3ca45b08	0.020062938
6	0x3cf854e7	0.030313922
7	0xbe01f23f	-0.12690066
8	0x3d0efae1	0.034907226
9	0xbd28927b	-0.04115532
10	0xbdca7779	-0.09886069
11	0xbce259fe	-0.027630802
12	0x3dac80ed	0.08423028
13	0xbdb96f5c	-0.09054443
14	0x3da0714e	0.07834111
15	0xbd8fad8d	-0.07015524
16	0xbc0caf49	-0.008586713
17	0x3cad1478	0.021127924
18	0xbd2ff23a	-0.042955615
19	0xbdaddecf	-0.08489763
20	0xbc815315	-0.015786687
21	0x3d0a757a	0.03380344
22	0xbc7cd3a2	-0.015431317
23	0x3d097be5	0.03356542
24	0xbc7e74e7	-0.015530801
25	0x3dfd61c0	0.1237216
26	0xbd3d7d12	-0.046261854
27	0xbd8b84b5	-0.06812421
28	0xbdac7c28	-0.084221184
29	0xbc8c4192	-0.01712111
30	0x3b0ba8da	0.002131036
31	0x3dd214ad	0.1025785
32	0xbc13056d	-0.008973462
33	0x3ce55513	0.027994668
34	0x3cf6c661	0.030123891
35	0x3d5dfedc	0.05419813
36	0x3d83c566	0.06434135
37	0x3d5e7a44	0.05431582
38	0x3de1b70c	0.110212415
39	0x3ded8d77	0.11599248
40	0xbdcc6197	-0.09979551
41	0x3d1bc783	0.038032066
42	0x3b7e51db	0.0038806114
43	0x3cb04b7c	0.021520369
44	0xbc2b095e	-0.010439245
45	0x3b9157cf	0.0044355164
46	0x3e1bbd4b	0.15208928
47	0x3c8e8c43	0.017400866
48	0xbd70d8f9	-0.05880067
49	0xbca3713f	-0.01995146
50	0xbdece1ea	-0.11566527
51	0xbd53facc	-0.05175285
52	0xbd9623b6	-0.0733103
53	0x3d7bbc68	0.061458975
54	0xbd19065c	-0.03735958
55	0xbd6dbc9c	-0.0580412
56	0xbd7e2d59	-0.062054966
57	0x3e13c32d	0.14429922
58	0x3e123fcc	0.14282149
59	0x3c01a8fc	0.007913824
60	0xbe118eef	-0.14214681
61	0x3d1b653d	0.037938345
62	0xbce193a4	-0.02753622
63	0xbb78ca07	-0.0037962215
64	0xbc32ab76	-0.010905137
65	0x3d06808b	0.032837432
66	0xbcb4b56c	-0.022059165
67	0xbc3410f8	-0.010990374
68	0xbd2ab458	-0.041675895
69	0x3dcacc12	0.099022046
70	0xbdb02b1c	-0.086019725
71	0xbc86ebf1	-0.016469928
72	0x3db6cb38	0.0892548
73	0xbd85f768	-0.065413296
74	0xbd1788b2	-0.036995597
75	0x3e0f7c20	0.14012194
76	0x3d76e2c1	0.060274843
77	0x3d019428	0.031635433
78	0xbc1b7cea	-0.009490231
79	0x3dcf2d6f	0.10116088
80	0x3e131ebd	0.14367194
81	0x3d817c92	0.06322588
82	0x3dc69a51	0.09697402
83	0xbdaef958	-0.08543652
84	0xbde8f6a6	-0.113751695
85	0x3d58fba8	0.052974373
86	0xbca7c37e	-0.02047896
87	0x3d649b8a	0.055812396
88	0x3d9300ba	0.07177873
89	0x3d6054cd	0.054768372
90	0xbddc2187	-0.10748582
91	0x3cc32ba3	0.023824519
92	0x3d8e7e86	0.06957726
93	0xbcb34ccd	-0.021887207
94	0x3d02c07c	0.03192185
95	0x3cba8d96	0.022772592
96	0x3e1fd550	0.15608716
97	0xbca2a265	-0.019852826
98	0x3e1b2783	0.15151791
99	0x3c5e5c88	0.013571866
100	0x3da65b53	0.081228875
101	0x3cafd007	0.0214615
102	0x3e24d6d7	0.1609758
103	0x3d365abe	0.044520132
104	0xbde2e48f	-0.1107875
105	0xbe0b735a	-0.13618222
106	0x3c1df2a6	0.009640371
107	0xba4c9de9	-0.0007805513
108	0x3d7ea786	0.06217148
109	0xbd30ae46	-0.04313495
110	0x3ddd27ad	0.10798583
111	0xbdc56f72	-0.09640397
112	0xbc193b72	-0.009352552
113	0x3bd8ff58	0.006622236
114	0xbd11a0e6	-0.035553835
115	0x3d035c4e	0.03207045
116	0xbc7bdf4d	-0.015373063
117	0xbd35cdcb	-0.044385713
118	0x3dba732b	0.09103998
119	0x3dd10094	0.102051884
120	0x3c91d99c	0.01780396
121	0x3cb7991e	0.02241188
122	0x3d2a8236	0.041628085
123	0x3def2c59	0.116783805
124	0x3d2b372b	0.04180066
125	0xbd5692e5	-0.052386183
126	0x3c927786	0.017879259
127	0x3dbe00b2	0.09277476
128	0x3da15590	0.07877648
129	0x3de1d2cf	0.11026537
130	0x3d2812ea	0.041033663
131	0xbc1c52bf	-0.009541213
132	0x3dd01dbb	0.10161921
133	0x3d07b7f2	0.03313441
134	0xbdc1722b	-0.09445604
135	0x3ce40d95	0.027838508
136	0x3d1c78f6	0.038201295
137	0x3d195da8	0.037442833
138	0xbc7e193e	-0.015508948
139	0xbda17da3	-0.078852914
140	0xbd67ab8b	-0.05656008
141	0x3d2d57dd	0.04232012
142	0xbd2364f7	-0.03989121
143	0xbc966559	-0.018358873
144	0xbdccd212	-0.10001005
145	0xbd41890d	-0.047249842
146	0x3d7ca50d	0.061680842
147	0xbcf98663	-0.030459588
148	0x3cd56d4d	0.026053095
149	0xbd723340	-0.059130907
150	0xbd2c91a9	-0.0421311
151	0x3cc48417	0.023988767
152	0x3d570ba7	0.052501347
153	0x3dffc55c	0.12488815
154	0xbdb63694	-0.08897129
155	0x3d15485f	0.03644597
156	0x3dec5cdd	0.1154115
157	0xbdeaa83d	-0.1145787
158	0xbd36a838	-0.04459402
159	0xbdb7480b	-0.08949288
160	0x3df68ec0	0.12038946
161	0xbc80baa1	-0.015713992
162	0x3dafcba6	0.08583765
163	0x3d85a16b	0.06524929
164	0x3d45e404	0.048313156
165	0xbd25b565	-0.040456194
166	0xbd171803	-0.036888134
167	0xbce2c909	-0.027683752
168	0xbd27fc43	-0.04101206
169	0xbde1a7d7	-0.11018341
170	0xbe0fb0ea	-0.14032331

model.2.running_mean f4 [171]
0	0x3ea62ac9	0.32454517
1	0x3e869463	0.26285085
2	0x3e9a4ce3	0.30136785
3	0x3e9fd849	0.312197
4	0x3efb41c7	0.49073622
5	0x3ead7238	0.33876204
6	0x3e895446	0.26822108
7	0x3e8d2800	0.2756958
8	0x3e3f781e	0.18698165
9	0x3cb25fb3	0.021774149
10	0x3e2651be	0.1624212
11	0x3ee06ee1	0.43834594
12	0x3e812892	0.25226265
13	0x3e256ada	0.16154042
14	0x3ea308cf	0.31842658
15	0x3ed49879	0.41522577
16	0x3f015cf0	0.50532436
17	0x3f103ac1	0.5633965
18	0x3ec48589	0.3838313
19	0x3d24fc3d	0.040279616
20	0x3f05bdee	0.52242935
21	0x3e9d730d	0.3075184
22	0x3ee44b66	0.44588774
23	0x3e67bfc3	0.22631745
24	0x3eec8719	0.4619682
25	0x3eabb4ed	0.33536473
26	0x3edf9a6f	0.4367251
27	0x3ee562ac	0.44801843
28	0x3eb0876f	0.34478328
29	0x3eda046e	0.42581505
30	0x3ef419c1	0.476759
31	0x3ec73cd1	0.38913587
32	0x3eec5262	0.46156603
33	0x3e8ca89d	0.27472392
34	0x3ed31763	0.4122878
35	0x3ecbbcec	0.39792573
36	0x3f0fa6ba	0.5611378
37	0x3ed066ed	0.40703526
38	0x3ece9fe0	0.4035635
39	0x3e9ed247	0.31019804
40	0x3eabb4de	0.33536428
41	0x3ebe2e6b	0.3714479
42	0x3eb06f89	0.34460095
43	0x3ebb6bf3	0.36605796
44	0x3e39f2de	0.18159053
45	0x3e3e2ac9	0.18571009
46	0x3ea9dc66	0.33175963
47	0x3e564c73	0.209276
48	0x3ecf08d8	0.40436435
49	0x3e54497f	0.20731162
50	0x3f159923	0.58436793
51	0x3eaadeca	0.333731
52	0x3ed5944a	0.41714698
53	0x3ec19ee5	0.3781654
54	0x3ec84e23	0.39122114
55	0x3d6e7882	0.058220394
56	0x3ebddf93	0.37084636
57	0x3e8f5b99	0.2799957
58	0x3ee9ab71	0.45638612
59	0x3f02d7fd	0.5111082
60	0x3f07d261	0.5305539
61	0x3e9023a0	0.2815218
62	0x3ef7be6a	0.48387462
63	0x3ec98f2b	0.3936704
64	0x3ed4269b	0.41435704
65	0x3ec8f4d3	0.39249286
66	0x3dfb46fd	0.12269399
67	0x3ecf531d	0.40493098
68	0x3edd5a3f	0.43232915
69	0x3e96e10c	0.29468572
70	0x3f059a8c	0.52188945
71	0x3e91dd7b	0.2848929
72	0x3ec7d447	0.39029142
73	0x3e8f314a	0.27967292
74	0x3ec9d42c	0.39419687
75	0x3e5505bf	0.20802973
76	0x3efac586	0.48978823
77	0x3ef19a32	0.47187954
78	0x3f0e7ec2	0.5566217
79	0x3e687c04	0.22703558
80	0x3e896b21	0.26839545
81	0x3dde0b88	0.10842043
82	0x3e7b584d	0.24545403
83	0x3e1fde53	0.15612154
84	0x3e8c382e	0.27386612
85	0x3e7fac1f	0.24968003
86	0x3ec824d5	0.390906
87	0x3edbb005	0.4290773
88	0x3f0533b8	0.5203204
89	0x3dda22ba	0.10651155
90	0x3ea4c2ab	0.3217977
91	0x3edbda10	0.42939806
92	0x3e945032	0.28967434
93	0x3e3f0950	0.18655896
94	0x3ea79366	0.32729644
95	0x3f016f00	0.5056
96	0x3ec22fd2	0.3792711
97	0x3f061b36	0.5238527
98	0x3e323eae	0.17406723
99	0x3f04c851	0.5186816
100	0x3e577324	0.21040016
101	0x3e681b32	0.22666624
102	0x3e807659	0.25090292
103	0x3ec56c34	0.38559115
104	0x3edf67ae	0.4363379
105	0x3df65974	0.120287806
106	0x3e7b63d6	0.24549803
107	0x3f076232	0.5288421
108	0x3eb46bb7	0.3523843
109	0x3e9dba5c	0.30806243
110	0x3e982f55	0.2972361
111	0x3e3d3d0a	0.18480316
112	0x3eb653dc	0.35610855
113	0x3e52a12e	0.20569298
114	0x3ef94fd6	0.48693722
115	0x3eeb5e9c	0.4597062
116	0x3f0005ec	0.50009036
117	0x3e809b0b	0.25118288
118	0x3ea5b1c8	0.323622
119	0x3ed926db	0.42412457
120	0x3ef73bcc	0.4828781
121	0x3eb63d71	0.3559375
122	0x3e69d820	0.22836351
123	0x3e2d42f5	0.16920073
124	0x3ebcd275	0.36879316
125	0x3e86cb18	0.26326823
126	0x3e3ad22f	0.18244241
127	0x3e9829fe	0.29719537
128	0x3db586c1	0.08863593
129	0x3e8b5374	0.27212107
130	0x3e90dfeb	0.28295836
131	0x3e83b07f	0.25720593
132	0x3ed9e925	0.42560688
133	0x3eb94b86	0.36190432
134	0x3ec64e64	0.38731682
135	0x3e9d2501	0.30692294
136	0x3ebc1842	0.36737257
137	0x3eba972d	0.36443463
138	0x3e8197d7	0.25311157
139	0x3ed90ff8	0.42394996
140	0x3e821e5e	0.25413793
141	0x3ee01042	0.43762404
142	0x3e96b48f	0.2943463
143	0x3f08f45e	0.53497875
144	0x3ed024d4	0.40653098
145	0x3e862d13	0.26206264
146	0x3eab541f	0.33462617
147	0x3f0768ff	0.52894586
148	0x3e902c7d	0.28158942
149	0x3ecc6ed6	0.3992831
150	0x3ed734d8	0.42032504
151	0x3ea17266	0.31532592
152	0x3e8fb63c	0.2806872
153	0x3e2ab70f	0.16671394
154	0x3e7d78e6	0.2475315
155	0x3ebd594d	0.36982194
156	0x3ed90c92	0.42392403
157	0x3ed63d4e	0.41843647
158	0x3ef8f04e	0.48620838
159	0x3eaff383	0.34365472
160	0x3e5ecaa6	0.21756992
161	0x3f03bf02	0.5146333
162	0x3d77766c	0.06041567
163	0x3ea48f6d	0.32140675
164	0x3e9f35a1	0.31095603
165	0x3eff854d	0.49906388
166	0x3e1a412a	0.1506392
167	0x3e4fbbe0	0.20286512
168	0x3ea04052	0.31299073
169	0x3f14597f	0.5794906
170	0x3e579079	0.21051206

model.2.running_var f4 [171]
0	0x3e508425	0.20362909
1	0x3e1c313f	0.15253161
2	0x3e07296f	0.131994
3	0x3e1f31af	0.15546297
4	0x3ebdaec5	0.370474
5	0x3e5bff47	0.214841
6	0x3e23bdbd	0.15990348
7	0x3dd2e388	0.102973044
8	0x3db43c3c	0.08800551
9	0x3bb8cfb1	0.005639993
10	0x3da5b91d	0.08091948
11	0x3e6a6775	0.22891028
12	0x3e0221b0	0.12708163
13	0x3d8d4a13	0.06898894
14	0x3e6706e7	0.22561227
15	0x3f1c3f87	0.61034435
16	0x3f061c69	0.523871
17	0x3ef3e705	0.4763719
18	0x3e876501	0.26444247
19	0x3c6ec22c	0.014572661
20	0x3f189501	0.5960236
21	0x3e853889	0.26019695
22	0x3ec78b27	0.38973352
23	0x3dad6737	0.08466952
24	0x3f1cf2c8	0.61307955
25	0x3e8cb57e	0.27482218
26	0x3edaccf5	0.42734495
27	0x3f3c65cb	0.73592824
28	0x3f40b199	0.7527099
29	0x3e9293f4	0.28628504
30	0x3ec073ba	0.37588292
31	0x3e785add	0.24253412
32	0x3ec25670	0.37956572
33	0x3e2a1417	0.16609226
34	0x3e83d50c	0.2574848
35	0x3e5ad696	0.2137092
36	0x3ede86be	0.43462175
37	0x3e5187bb	0.20461933
38	0x3e4a31d6	0.19745573
39	0x3e10e581	0.14150049
40	0x3e88d77a	0.26726896
41	0x3e7abc5a	0.24485913
42	0x3e4c5fe5	0.19958456
43	0x3e9cd552	0.306315
44	0x3d97097d	0.073748566
45	0x3db115fd	0.08646772
46	0x3e222c97	0.15837322
47	0x3de099f7	0.109668665
48	0x3ea92d16	0.3304221
49	0x3daa4473	0.08313837
50	0x3f8835c2	1.0641406
51	0x3e52a7a3	0.20571761
52	0x3efd71b7	0.4950082
53	0x3e1b8065	0.15185697
54	0x3eb74571	0.35795167
55	0x3ca3730f	0.019952325
56	0x3ef1b70b	0.47209963
57	0x3e0f940e	0.14021322
58	0x3ec96f62	0.3934279
59	0x3f0626a3	0.52402705
60	0x3f5a0079	0.8515697
61	0x3dde1772	0.108443156
62	0x3ef9a919	0.48761824
63	0x3e84e9d3	0.25959644
64	0x3e94f1e9	0.29090813
65	0x3e7c59a3	0.24643569
66	0x3d3df26b	0.046373766
67	0x3e9eb88d	0.31000176
68	0x3ed7b1f7	0.42127964
69	0x3de4b257	0.11166828
70	0x3f3c464e	0.73544776
71	0x3e26eb3f	0.16300677
72	0x3e235532	0.15950468
73	0x3ea192e6	0.31557387
74	0x3e945203	0.2896882
75	0x3ddc006c	0.10742268
76	0x3ea065d2	0.31327683
77	0x3eaf5c09	0.34249905
78	0x3f021d01	0.50825506
79	0x3de48a45	0.11159185
80	0x3dd021b5	0.10162679
81	0x3d35ca13	0.044382166
82	0x3e1da590	0.15395188
83	0x3dc8e345	0.09808973
84	0x3e22d376	0.15900978
85	0x3dbe9ccb	0.0930725
86	0x3eb26c9d	0.3484849
87	0x3e730ee6	0.23736152
88	0x3ea20a9b	0.31648716
89	0x3d392c8e	0.045208506
90	0x3dd5e4a0	0.104439974
91	0x3e841aba	0.2580164
92	0x3ddeb96b	0.108752094
93	0x3da88e04	0.08230212
94	0x3e69ec9c	0.22844166
95	0x3ea5fd79	0.32419947
96	0x3e915211	0.28382924
97	0x3f0fd68a	0.56186736
98	0x3d897bb0	0.06713045
99	0x3ee48259	0.44630697
100	0x3d9b199a	0.075732425
101	0x3dd86750	0.1056658
102	0x3dca999a	0.098925784
103	0x3e7551f7	0.23957048
104	0x3f044b8a	0.51677763
105	0x3d3087ad	0.04309814
106	0x3dd12b1b	0.102133
107	0x3ef6ad6a	0.4817918
108	0x3e1633a4	0.14668137
109	0x3dd9b35b	0.106299125
110	0x3e0cb69f	0.1374154
111	0x3d504d1b	0.050854784
112	0x3e548ec6	0.20757589
113	0x3d955e3b	0.07293364
114	0x3f17d367	0.5930695
115	0x3e955ed6	0.29173917
116	0x3edcad7d	0.4310111
117	0x3e071871	0.13192917
118	0x3de00eaa	0.10940297
119	0x3e86815d	0.2627057
120	0x3eb43dbd	0.35203353
121	0x3e9f00ba	0.31055242
122	0x3de8c084	0.113648444
123	0x3d76160f	0.06007963
124	0x3e4c7eef	0.19970296
125	0x3e99ded7	0.30052826
126	0x3d8d959d	0.06913302
127	0x3e0447d4	0.12918025
128	0x3cfb9b4f	0.030713705
129	0x3e0b572a	0.13607469
130	0x3dcfe507	0.101511054
131	0x3e4124d5	0.18861707
132	0x3e7cf568	0.2470299
133	0x3e0b3cc9	0.13597406
134	0x3ec4c51a	0.38431627
135	0x3e208623	0.15676169
136	0x3e60ad3c	0.21941084
137	0x3e4e85d4	0.20168239
138	0x3daa0a05	0.08302692
139	0x3ef2717e	0.47352213
140	0x3e5091fb	0.20368187
141	0x3e914b4b	0.28377756
142	0x3d9b7961	0.075915106
143	0x3f10742e	0.56427276
144	0x3f12cec6	0.5734676
145	0x3e05e7c0	0.13076687
146	0x3e498a8e	0.1968176
147	0x3f2648a9	0.6495462
148	0x3deec08c	0.11657819
149	0x3eddcda8	0.43320966
150	0x3e9e052b	0.30863318
151	0x3e3a6d5c	0.1820578
152	0x3e1d85c4	0.15383059
153	0x3d3f0ff4	0.046646073
154	0x3ef5506a	0.47912914
155	0x3eab147a	0.3341406
156	0x3e4e0035	0.20117266
157	0x3f09530b	0.5364234
158	0x3efbf7a7	0.4921238
159	0x3ed39af9	0.41329172
160	0x3dacc855	0.08436648
161	0x3ec88846	0.39166468
162	0x3c7be9d6	0.015375575
163	0x3e234f93	0.15948324
164	0x3e549d94	0.20763236
165	0x3f3ce0cd	0.7378052
166	0x3daf7fb4	0.08569279
167	0x3dc005f3	0.09376135
168	0x3e503499	0.20332564
169	0x3f6aa3fa	0.9165646
170	0x3dcae1bf	0.09906339

model.4.weight f4 [128, 171]
0	0x3d286ad4	0.041117504
1	0xbd4c010c	-0.049805686
2	0xbc79b851	-0.015241698
3	0xbd385d86	-0.045011066
4	0xbdb18d92	-0.086695805
5	0x3c1175f7	0.008878223
6	0xbdc5de3d	-0.09661529
7	0xbcf54d9e	-0.029944237
8	0xbda466f5	-0.0802745
9	0x3d053a10	0.032526076
10	0xbd2b9d64	-0.041898146
11	0xbdb150f5	-0.086580195
12	0x3d3ab690	0.04558426
13	0xbd2cd87b	-0.04219864
14	0xbe110bf1	-0.14164712
15	0xbd4646f0	-0.048407495
16	0x3c07fe66	0.008300399
17	0xbd156ce3	-0.036480796
18	0xbc934fa5	-0.017982313
19	0x3c6e063c	0.014527854
20	0x3d043bfe	0.032283776
21	0xbd8aabc1	-0.06771041
22	0xbcd0cf29	-0.025489407
23	0xbc6d7abc	-0.014494594
24	0x3d2c7dc6	0.042112134
25	0xbdcbb410	-0.099464536
26	0x3c70b1b2	0.014690803
27	0xbd91e635	-0.07123987
28	0xbbe84187	-0.0070878896
29	0xbae68f03	-0.0017590228
30	0xbd6def0a	-0.058089294
31	0xbde06d26	-0.109583184
32	0x3c816651	0.015795859
33	0xbd0a0a8f	-0.033701476
34	0xbb86303a	-0.0040951045
35	0xbcc5b33d	-0.024133319
36	0xbd8e3cd8	-0.06945199
37	0xbd25f18e	-0.040513568
38	0xbd841e21	-0.06451059
39	0x3d16cb53	0.036815
40	0x3c9d09ae	0.019169655
41	0xbdb8ab51	-0.09017051
42	0xbd3a9b18	-0.045558065
43	0x3b12a81f	0.002237804
44	0xbc8c62e2	-0.017136995
45	0xbc91c107	-0.017792238
46	0xbdeb9375	-0.115027346
47	0x3d5e15d7	0.054220047
48	0xbd68bcf3	-0.05682082
49	0x3da00271	0.07812966
50	0x3c8eacaa	0.017416317
51	0xbc79062c	-0.015199225
52	0xbae16fa5	-0.001719941
53	0x3ca69154	0.02033297
54	0xbd037916	-0.0320979
55	0x3d462d5f	0.048383113
56	0xbc09a952	-0.0084021855
57	0xbce0cc44	-0.027441151
58	0x3c25eb3c	0.010126885
59	0x3d02d64b	0.031942647
60	0xbd9157ed	-0.07096849
61	0x3badf2b0	0.0053084716
62	0xbd106e69	-0.035261545
63	0x3d0a4f8c	0.033767268
64	0x3d06c8e6	0.032906435
65	0xbcfca841	-0.030841948
66	0x3d28071f	0.041022416
67	0xbd452396	-0.04812964
68	0xbb5fe033	-0.0034160733
69	0xbc4dc4d2	-0.012559133
70	0xbdc1b64b	-0.09458598
71	0x3dbe9fc2	0.09307815
72	0xbde0ce0f	-0.109768026
73	0xbca550e0	-0.020180166
74	0x3d0bc348	0.03412178
75	0x3d379783	0.044822227
76	0xbd36448c	-0.044498965
77	0xbd39156f	-0.045186456
78	0x3d2fe9d7	0.042947616
79	0xbda39e4e	-0.079891786
80	0xbd485a15	-0.048914034
81	0x3df62f4c	0.1202074
82	0xbe0d8b84	-0.13822752
83	0x3d197870	0.037468374
84	0xbd3e75d6	-0.046499096
85	0x3cad2d46	0.021139752
86	0x3d3fabac	0.04679458
87	0xbcfdd751	-0.03098646
88	0xbd942d23	-0.07235172
89	0x3c705642	0.014669003
90	0xbd7ed79b	-0.062217336
91	0xbcda0dd3	-0.02661792
92	0xbd3129ea	-0.043252863
93	0xbd82c421	-0.06385065
94	0xbb11e5fa	-0.002226232
95	0xbd9e61f8	-0.0773353
96	0xbd0174ff	-0.031605717
97	0x3cf2d892	0.029644284
98	0x3d5fe30b	0.054659884
99	0xbddc351d	-0.10752318
100	0x3c9066b1	0.017627092
101	0x3c14c9f3	0.009081352
102	0xbb3d38d2	-0.002887298
103	0xbdfb4a46	-0.12270026
104	0xbd7249e7	-0.05915251
105	0xbb4e6a2b	-0.0031496387
106	0x3c03a135	0.00803404
107	0xbd9faa9b	-0.07796212
108	0xbcfe81b6	-0.03106771
109	0x3ca0070b	0.019534608
110	0x3dbbc126	0.091676995
111	0xbc853b07	-0.016263498
112	0xbd366341	-0.04452825
113	0xbe0cfcca	-0.13768306
114	0xbcc809c3	-0.024418717
115	0xbc0e9d7b	-0.008704538
116	0xbd0472b4	-0.032335952
117	0xbd610c15	-0.054943163
118	0x3a3a273f	0.0007101185
119	0xbd6bcc3c	-0.05756782
120	0xbd4b41b8	-0.04962322
121	0xbdee3827	-0.11631804
122	0xbce67e9f	-0.02813655
123	0xbda7e027	-0.081970505
124	0xbd5c4647	-0.05377796
125	0xbd05d239	-0.032671187
126	0x3d9266d4	0.07148519
127	0x3d491604	0.04909326
128	0xbb6216c7	-0.003449844
129	0x3dbe3aa5	0.09288529
130	0xbd8cd689	-0.06876857
131	0xbcc525ba	-0.024065841
132	0xbd2d798d	-0.042352248
133	0xbc275d51	-0.010215119
134	0xbb8464f1	-0.0040403535
135	0xbd85bfd1	-0.06530727
136	0xbd80102a	-0.06253083
137	0xbb47ebad	-0.0030505464
138	0xba8de14f	-0.0010824593
139	0x3d0ed563	0.03487147
140	0xbd8ac6a2	-0.067761675
141	0xbc8c2636	-0.017108064
142	0xbda1f01f	-0.079071276
143	0x3cb76a95	0.02238969
144	0x3d5d215a	0.053986885
145	0xbdab3275	-0.08359233
146	0xbd9cb4f4	-0.076517016
147	0x3ce3007a	0.027710188
148	0xbd8dbcb4	-0.06920758
149	0xbd08483b	-0.03327201
150	0xbd281f3e	-0.04104542
151	0x3ce49c71	0.027906628
152	0x3d0f1ecf	0.03494149
153	0xbdbc3b5e	-0.09191011
154	0x3d3af695	0.045645315
155	0xbc83ac8f	-0.016073493
156	0xbdfb0a09	-0.122577734
157	0x3be05cd3	0.006847003
158	0xbd6bae16	-0.05753907
159	0xbcfc0736	-0.030765157
160	0x3d9391fa	0.07205577
161	0xbcc51945	-0.024059901
162	0x3db98ae8	0.090596974
163	0xbdc8d878	-0.09806913
164	0xbd1bf9b0	-0.038079917
165	0x3cf4ad07	0.029867662
166	0xbd0dc329	-0.034609947
167	0x3d10e1b2	0.03537149
168	0x3cce820b	0.025208494
169	0xbd47b64a	-0.04875783
170	0xbcd7afc6	-0.026328932
171	0x3c8c0c48	0.0170957
172	0x3d3e77ab	0.046500843
173	0xbd082272	-0.033235975
174	0xbd854919	-0.06508083
175	0xbc1d8ff2	-0.009616839
176	0x3dc37e07	0.09545522
177	0xbd8c53b1	-0.068519
178	0x3d84a6a0	0.06477094
179	0x3ccd0f16	0.025031608
180	0xbc888405	-0.016664514
181	0xbcccd516	-0.025003951
182	0xbcb0c085	-0.021576175
183	0x3c626e36	0.013820222
184	0xbd93aa55	-0.07210223
185	0xbd732662	-0.059362777
186	0x3d341de9	0.043973837
187	0x3d58c712	0.052924223
188	0xbb81c53a	-0.003960279
189	0xbd01c8b4	-0.031685546
190	0x3d9e4fdc	0.07730076
191	0xbc2ccdb3	-0.010547089
192	0xbd895e00	-0.06707382
193	0x3d0f3bdc	0.034969196
194	0xbdacae36	-0.084316656
195	0x3cc23fa8	0.023711994
196	0x3ba7aa28	0.0051167198
197	0xbba1dc6b	-0.004939606
198	0x3d2839ad	0.04107063
199	0xbbf71ea9	-0.007541497
200	0x3d4c0f86	0.04981949
201	0xbda1e025	-0.0790408
202	0xbcfc3be6	-0.03079028
203	0x3d55e5b2	0.052221008
204	0xbd02d294	-0.031939104
205	0xbd9fe631	-0.078075774
206	0xbcac5c90	-0.021040231
207	0xbd65a42c	-0.05606477
208	0xbdd83d1c	-0.10558531
209	0xbd876866	-0.06611709
210	0xbd1a6bcf	-0.03770047
211	0x3d416d32	0.047223277
212	0x3d218d07	0.039441135
213	0x3dcdc8d0	0.100480676
214	0x3c526c94	0.01284327
215	0x3ceb69d9	0.028736996
216	0x3d979af9	0.074026056
217	0xbd823ad8	-0.0635888
218	0x3d9e524c	0.07730541
219	0x3cfbf9d3	0.030758774
220	0x3dad8252	0.08472122
221	0x3b783838	0.0037875306
222	0x3cefb5a0	0.02926141
223	0x3d62f142	0.055405863
224	0xbccbd3b5	-0.024881223
225	0x3c93e2d6	0.0180525
226	0x3ccd1ef0	0.025039166
227	0x3c2189b3	0.00985949
228	0xbd1ef90a	-0.03881172
229	0x3c5ae33f	0.013359844
230	0x3da1924d	0.07889233
231	0xbaae972c	-0.0013320199
232	0xbdbc5950	-0.091967225
233	0x3d63ba6d	0.05559771
234	0xbc5c59c6	-0.013449138
235	0x3d8786a1	0.06617475
236	0x3cfff873	0.0312464
237	0x3d680c91	0.05665261
238	0x3d03bb96	0.032161318
239	0x3da524d7	0.08063667
240	0xbc8d6ec9	-0.01726474
241	0x3d2b24c7	0.04178312
242	0x3c5f7538	0.013638787
243	0xbcaf56c6	-0.021403681
244	0x3d35f117	0.044419374
245	0xbcb5899b	-0.022160342
246	0xbcc1e91a	-0.023670722
247	0xbd08b85b	-0.03337894
248	0xbd2efab8	-0.042719573
249	0x3d3ddf32	0.046355434
250	0x3af37d48	0.0018576765
251	0xbd026bca	-0.031841077
252	0xbcaca573	-0.021074986
253	0xbda7d30c	-0.08194551
254	0x3ca356a7	0.01993878
255	0x3c6ae91f	0.014337807

model.4.bias f4 [128]
0	0x3dc7e282	0.0976
1	0x3c8e8aa4	0.017400093
2	0x3bb793fd	0.0056023584
3	0x3da607f5	0.081069864
4	0x3ce99d91	0.028517516
5	0x3ddc3dd8	0.10753983
6	0x3d10b2b7	0.035326686
7	0x3dab6895	0.08369557
8	0x3d86420e	0.06555568
9	0xbcd00de4	-0.025397249
10	0x3e02c033	0.1276863
11	0x3dec7f4f	0.1154772
12	0x3d4825a4	0.048864022
13	0x3dc45469	0.095864125
14	0xbcaa163c	-0.020762555
15	0x3d956421	0.07294489
16	0x3c258620	0.010102779
17	0x3db5ab02	0.08870508
18	0x3db148e9	0.08656485
19	0xbcd7bbaf	-0.026334612
20	0x3de267a9	0.11054928
21	0x3cbf78ea	0.023373086
22	0x3d8ba170	0.06817901
23	0x3cd96a26	0.026539873
24	0x3da89872	0.08232202
25	0xbc99bdff	-0.018767355
26	0x3d1e6a5c	0.03867565
27	0x3de86fe0	0.113494635
28	0x3db98dda	0.09060259
29	0x3d895dd0	0.067073464
30	0x3e0cff33	0.13769226
31	0x3da30471	0.079598315
32	0x3db9b105	0.09066967
33	0xbbb0ebbd	-0.005399196
34	0xbd2923b3	-0.04129381
35	0x3d38c7e0	0.04511249
36	0x3d2591b8	0.04042217
37	0x3dd441ac	0.103640884
38	0x3dd02644	0.101635486
39	0x3c425901	0.0118620405
40	0x3c06e45c	0.008233156
41	0x3dda5ac5	0.10661844
42	0x3e0fd327	0.14045392
43	0x3dd9e2a4	0.106389314
44	0x3cc653d4	0.024209894
45	0x3df169a6	0.11787729
46	0x3dc42950	0.09578192
47	0x3ad7166a	0.0016409878
48	0xbd212c9a	-0.039349176
49	0x3d6f46dc	0.058417186
50	0x3ddd1684	0.1079531
51	0x3cc3df8f	0.023910312
52	0x3db4697a	0.088091806
53	0x3dd6cbe3	0.10488107
54	0xbcd6bed7	-0.026214046
55	0xbc1c0962	-0.009523721
56	0x3d48434b	0.0488923
57	0x3d443d14	0.04790981
58	0x3d3802c8	0.044924527
59	0x3df0edf9	0.1176414
60	0x3d0a1436	0.03371068
61	0x3db014a9	0.085976906
62	0x3d8c1bce	0.06841241
63	0x3dea2ee1	0.11434723
64	0x3d845dca	0.06463201
65	0x3dc777fe	0.097396836
66	0x3d68fd28	0.056882054
67	0x3d8be68a	0.06831081
68	0x3d933b49	0.07189042
69	0x3b911656	0.0044277115
70	0x3d2fcbf7	0.042919125
71	0x3e24b341	0.16084005
72	0x3dc3750a	0.09543808
73	0x3de85ea5	0.11346177
74	0x3d5d6c69	0.054058466
75	0x3cdbb552	0.026819859
76	0x3e39e50c	0.1815378
77	0xbab7f26b	-0.0014034038
78	0x3c3e0e1c	0.011600044
79	0x3e0670f8	0.13129032
80	0x3ca0e55f	0.019640623
81	0xbb7eb7e5	-0.0038866934
82	0x3e71234b	0.2354862
83	0x3e0b0990	0.13577867
84	0x3dda1ac4	0.106496364
85	0x3d4a43ea	0.049381174
86	0x3dca36ce	0.098737344
87	0x3e026a03	0.12735753
88	0xbd238e3e	-0.039930575
89	0x3e19f9e9	0.1503674
90	0x3d41a8b8	0.047280043
91	0xbcef4a6c	-0.029210292
92	0x3d4cee56	0.050031982
93	0x3d717e7b	0.05895851
94	0x3e151433	0.14558487
95	0x3d0219a2	0.031762727
96	0x3a063ce2	0.00051207666
97	0x3dae035f	0.08496737
98	0x3e4ef960	0.20212317
99	0x3e21c4e4	0.15797764
100	0xbcc03be9	-0.023466067
101	0x3b8cb934	0.004294539
102	0x3daa6a4d	0.083210565
103	0x3d12c63c	0.035833582
104	0x3c7e1a8d	0.01550926
105	0x3e33d0fe	0.17560193
106	0x3c85d5ce	0.016337302
107	0x3d5287e2	0.05139912
108	0x3e1eb3c4	0.15498263
109	0x3b1b2911	0.00236756
110	0x3e1aba2b	0.1511008
111	0x3d31ef75	0.043441255
112	0x3deacf2b	0.114652954
113	0xbc0ac171	-0.008468972
114	0x3dca31ae	0.09872757
115	0x3d3c490a	0.045968093
116	0x3e22690e	0.15860388
117	0x3ce8d23c	0.02842056
118	0x3e2763b3	0.16346626
119	0x3db383e1	0.08765388
120	0xbc9be60a	-0.01903059
121	0x3dfb3220	0.1226542
122	0x3d34f865	0.0441822
123	0x3db40b3e	0.08791207
124	0x3d01cce8	0.031689554
125	0x3cb1360a	0.021632213
126	0x3c862542	0.016375188
127	0xbd44eb95	-0.04807623

model.6.weight f4 [128]
0	0x3f86e486	1.053849
1	0x3f87ea4e	1.0618379
2	0x3f880987	1.0627908
3	0x3f88ad47	1.067788
4	0x3f89fa70	1.0779552
5	0x3f87fed1	1.0624639
6	0x3f879d59	1.0594894
7	0x3f877c1e	1.0584753
8	0x3f8867d7	1.065669
9	0x3f87a61c	1.0597568
10	0x3f8cf7df	1.1013144
11	0x3f887d45	1.0663229
12	0x3f8b7728	1.0895739
13	0x3f8912e3	1.0708889
14	0x3f8d0d6c	1.1019721
15	0x3f8ac4ce	1.084131
16	0x3f88efdd	1.06982
17	0x3f88b8eb	1.0681432
18	0x3f8877d4	1.0661569
19	0x3f8580c7	1.0429925
20	0x3f86a7e0	1.0519981
21	0x3f8cae19	1.099063
22	0x3f889c28	1.0672655
23	0x3f8837e9	1.0642062
24	0x3f8cd60c	1.1002822
25	0x3f89f6a7	1.0778397
26	0x3f8c71fc	1.0972285
27	0x3f88af0b	1.0678419
28	0x3f89509c	1.0727725
29	0x3f886e9a	1.0658753
30	0x3f892f31	1.0717527
31	0x3f89753a	1.07389
32	0x3f867a69	1.0506107
33	0x3f8aa61b	1.0831941
34	0x3f8a0fc4	1.0786061
35	0x3f895d56	1.0731609
36	0x3f898d38	1.0746222
37	0x3f8d925a	1.1060288
38	0x3f875ddd	1.057552
39	0x3f8ba6c4	1.0910268
40	0x3f876af5	1.0579516
41	0x3f8843bb	1.064567
42	0x3f886e0b	1.0658582
43	0x3f8785a6	1.0587661
44	0x3f887fde	1.0664022
45	0x3f8559dd	1.0418049
46	0x3f88195e	1.0632741
47	0x3f8832ba	1.064048
48	0x3f8a645c	1.0811877
49	0x3f87902d	1.0590874
50	0x3f8ca890	1.0988941
51	0x3f88d2ad	1.0689293
52	0x3f8aaa10	1.0833149
53	0x3f86a114	1.0517907
54	0x3f8a6131	1.081091
55	0x3f887acd	1.0662476
56	0x3f87d813	1.0612816
57	0x3f8effea	1.1171849
58	0x3f8c2845	1.0949789
59	0x3f88f814	1.0700707
60	0x3f88e791	1.0695668
61	0x3f872682	1.0558627
62	0x3f877341	1.0582048
63	0x3f88e1b1	1.0693876
64	0x3f88577b	1.0651697
65	0x3f890107	1.0703439
66	0x3f88f121	1.0698587
67	0x3f88c890	1.0686207
68	0x3f89187e	1.07106
69	0x3f893745	1.0719992
70	0x3f88c485	1.0684973
71	0x3f863e94	1.0487847
72	0x3f8726bf	1.0558699
73	0x3f8759f2	1.0574324
74	0x3f8cf40a	1.1011975
75	0x3f8964fb	1.0733942
76	0x3f86f7cc	1.0544372
77	0x3f8ef4a0	1.1168404
78	0x3f8846a7	1.0646561
79	0x3f897ab4	1.0740571
80	0x3f870ad2	1.0550177
81	0x3f8946c0	1.0724716
82	0x3f8748b8	1.0569067
83	0x3f89df0f	1.0771197
84	0x3f86b730	1.0524654
85	0x3f869d92	1.0516837
86	0x3f89b88d	1.0759445
87	0x3f88f6a3	1.0700268
88	0x3f89e75a	1.0773728
89	0x3f8a3123	1.0796245
90	0x3f88a67d	1.0675808
91	0x3f89f38a	1.0777447
92	0x3f8d08db	1.1018327
93	0x3f8ca5d1	1.0988103
94	0x3f8d55c6	1.1041801
95	0x3f8890cc	1.0669188
96	0x3f87ac4e	1.0599458
97	0x3f894093	1.0722831
98	0x3f89f576	1.0778034
99	0x3f8789df	1.058895
100	0x3f8842de	1.0645406
101	0x3f8a83d7	1.0821484
102	0x3f8af072	1.0854628
103	0x3f897d49	1.0741359
104	0x3f8b42e1	1.0879785
105	0x3f8b87f2	1.0900862
106	0x3f8719d2	1.0554755
107	0x3f90bc74	1.1307511
108	0x3f8730da	1.0561783
109	0x3f8c70be	1.0971906
110	0x3f8a7c29	1.0819141
111	0x3f887b5f	1.066265
112	0x3f86f470	1.0543346
113	0x3f8771ed	1.0581642
114	0x3f8bb7ec	1.0915504
115	0x3f888201	1.0664674
116	0x3f8802fe	1.0625913
117	0x3f8a4821	1.0803262
118	0x3f8a98f1	1.0827924
119	0x3f8a9137	1.0825566
120	0x3f8803aa	1.0626118
121	0x3f879143	1.0591205
122	0x3f87eb9d	1.0618778
123	0x3f8a3666	1.0797851
124	0x3f869c8a	1.0516522
125	0x3f8ce524	1.1007428
126	0x3f8addc7	1.0848931
127	0x3f87d055	1.0610453

model.6.bias f4 [128]
0	0x3d1eb082	0.03874255
1	0xbd85144f	-0.06498014
2	0x3d354883	0.044258606
3	0xbe0ba823	-0.13638358
4	0xbda1aeb1	-0.07894648
5	0xbd740200	-0.05957222
6	0xbd0959ae	-0.03353279
7	0x3dadf007	0.08493047
8	0xbc7e1ecd	-0.015510273
9	0xbd68c08a	-0.056824245
10	0x3bbd4135	0.0057755955
11	0x3d939eac	0.07207999
12	0xbdd04afc	-0.10170552
13	0xbd82bcfb	-0.063837014
14	0x3d2ad7a9	0.041709576
15	0x3dcf1740	0.101118565
16	0x3cf3dc54	0.029768147
17	0x3d8203bd	0.06348369
18	0xbd0dd682	-0.0346284
19	0xbd8199cb	-0.06328162
20	0x3daf6e66	0.08565979
21	0xbe100fc4	-0.14068514
22	0x3dc79237	0.09744685
23	0xbd3526b6	-0.04422637
24	0x3d8c081f	0.068374865
25	0xbd17199e	-0.036889665
26	0x3dd94b50	0.10610068
27	0x3dc4f606	0.09617238
28	0x3cce2428	0.025163725
29	0xbd8f6318	-0.070013225
30	0x3da28781	0.079360016
31	0xbdb50ab2	-0.088399306
32	0x3da1e38a	0.07904728
33	0xbdf3f5dc	-0.11912128
34	0xbd99c331	-0.07507933
35	0xbda660e5	-0.0812395
36	0xbdeac429	-0.11463196
37	0x3d411a78	0.047144383
38	0x3ce47c13	0.027891194
39	0xbdcf75cd	-0.101298906
40	0xbd87ce64	-0.06631163
41	0x3daaa365	0.08331946
42	0x3df07dcb	0.11742743
43	0x3d08eae3	0.03342713
44	0xbdb34d24	-0.08754948
45	0x3da31e2d	0.0796474
46	0xbdb2bcf4	-0.08727446
47	0x3c63e03b	0.013908441
48	0xbdbaf306	-0.09128384
49	0xbd55deb3	-0.052214336
50	0x3c3ed2fe	0.011646984
51	0xbca18cdd	-0.01972049
52	0xbda5bf6b	-0.08093151
53	0xbd3a0899	-0.045418356
54	0xbd4c477c	-0.04987286
55	0xbe055e0b	-0.13024156
56	0xbd7d8b46	-0.0619004
57	0xbd4a3278	-0.049364537
58	0xbe07bbbd	-0.1325521
59	0xbd94e469	-0.07270128
60	0xbd1606a0	-0.03662741
61	0xbc4e92f9	-0.012608283
62	0x3db48f02	0.08816339
63	0xbd4e2e27	-0.050336983
64	0x3c90cfdb	0.017677238
65	0x38f8debe	0.000118670505
66	0xbda8a1e8	-0.08234006
67	0xbd824158	-0.063601196
68	0xbc95cf8a	-0.018287439
69	0xbd001875	-0.031273324
70	0xbd26609c	-0.040619478
71	0x3da7aa87	0.081868224
72	0xbd5e9719	-0.054343317
73	0x3db3b66a	0.08775027
74	0xbdf81afc	-0.12114522
75	0xbdb88880	-0.0901041
76	0x3db67b6f	0.08910262
77	0xbd564477	-0.052311387
78	0xbda80b0e	-0.082052335
79	0xbd4990ff	-0.049210545
80	0x3de774e8	0.11301595
81	0x3c851762	0.016246501
82	0x3dbef6c6	0.09324412
83	0x3da0aeff	0.07845878
84	0xbd88d0b6	-0.066804335
85	0xbcbb5224	-0.022866316
86	0x3d37010c	0.044678733
87	0x3de33975	0.110949434
88	0xbdf4eed4	-0.11959615
89	0x3de84f2f	0.11343228
90	0xbd858134	-0.06518784
91	0xbd53532e	-0.051593
92	0xbdfd4f7f	-0.12368678
93	0xbdb64c28	-0.089012444
94	0x3cc642d4	0.024201788
95	0xbd5f7586	-0.05455544
96	0xbd7eb779	-0.062186692
97	0xbbebf1f8	-0.007200476
98	0x3d86c0bb	0.06579729
99	0x3dbf43a6	0.09339075
100	0xbd85778e	-0.06516944
101	0x3d6accd0	0.05732423
102	0xbda34d99	-0.07973785
103	0xbd824803	-0.063613914
104	0xbd9a6458	-0.0753867
105	0x3c2bc110	0.010483041
106	0xbd52057b	-0.051274758
107	0xbc114bba	-0.008868152
108	0x3db0600e	0.08612071
109	0xbdd05ec5	-0.10174326
110	0x3d5a3586	0.0532737
111	0x3d80553e	0.06266259
112	0xbd4bc5fe	-0.049749367
113	0xbc7592aa	-0.014988581
114	0xbdd4e80c	-0.10395822
115	0x3d969bce	0.07353936
116	0x3d7d582a	0.061851658
117	0xbdb1f7b2	-0.08689822
118	0x3d9ad17d	0.07559488
119	0xbbf4e810	-0.007473953
120	0x3cea0c95	0.028570453
121	0x3d8fe99b	0.070269786
122	0x3dbfc8f7	0.09364503
123	0xbd327072	-0.043564267
124	0xbd447dc8	-0.047971517
125	0xbdedd8d4	-0.11613622
126	0xbdbae779	-0.09126181
127	0xbdc027df	-0.09382605

model.6.running_mean f4 [128]
0	0x3f89476d	1.0724922
1	0x3fb9f215	1.4527003
2	0x3fd55344	1.6666036
3	0x3f89a7ea	1.0754368
4	0x3fac9641	1.3483354
5	0x3fbad8ad	1.4597374
6	0x3f9ea1fd	1.2393185
7	0x3fe780ef	1.8086222
8	0x3fa21697	1.2663144
9	0x3fc3e5c8	1.5304499
10	0x3fac2863	1.3449825
11	0x3fcb8813	1.5900902
12	0x3f6d3e69	0.92673355
13	0x3f9a2860	1.2043571
14	0x3f3f403e	0.747074
15	0x3f86e4d6	1.0538585
16	0x3f72bff5	0.94824153
17	0x3fd110e0	1.6333275
18	0x3fc576e9	1.5426913
19	0x3fa3a764	1.2785459
20	0x3fce63e0	1.612423
21	0x3fab220e	1.3369768
22	0x3fd2e737	1.6476811
23	0x3fc84cee	1.5648477
24	0x3f99632c	1.198339
25	0x3f97d378	1.186141
26	0x3f5e0740	0.8672981
27	0x3f37cfab	0.7180125
28	0x3fdac728	1.7092028
29	0x3f9d15c6	1.227227
30	0x3fab699e	1.3391607
31	0x3f9ea1ed	1.2393166
32	0x3feea3ba	1.8643715
33	0x3fa84d4e	1.3148592
34	0x3fa4f9ff	1.2888793
35	0x3f9fbf68	1.2480288
36	0x3f8ef4ac	1.1168418
37	0x3f7b5076	0.9816965
38	0x3f93bc13	1.1541771
39	0x3f8fad63	1.1224788
40	0x3f925d9f	1.1434821
41	0x3f9893a7	1.192006
42	0x3fbbaf05	1.4662787
43	0x3f811ec6	1.0087516
44	0x3faad9b1	1.3347684
45	0x3fb9e49a	1.4522889
46	0x3fa236ae	1.2672937
47	0x3f9acf27	1.2094468
48	0x3fb18016	1.3867214
49	0x3fbce3c6	1.4757011
50	0x3f94f059	1.1635848
51	0x3fd0afd9	1.6303664
52	0x3fa7152a	1.3053334
53	0x3fb302dd	1.3985249
54	0x3f8fdd5e	1.1239431
55	0x3f7a196c	0.9769504
56	0x3fbeed85	1.4916235
57	0x3f7ed6b8	0.99546385
58	0x3f7f5e99	0.9975372
59	0x3f96d864	1.1784787
60	0x3fd27c96	1.6444271
61	0x3f8784b0	1.0587368
62	0x3fd9608b	1.6982588
63	0x3f91bb5d	1.1385304
64	0x3f9202fb	1.140716
65	0x3fda469c	1.7052798
66	0x3fb582eb	1.4180578
67	0x3f9cd716	1.2253139
68	0x3f833c16	1.0252712
69	0x3fa7b790	1.3102894
70	0x3fa59277	1.2935323
71	0x3fd7bc1f	1.6854285
72	0x3fc2aa1e	1.5208166
73	0x3fbb1fa6	1.4619033
74	0x3f7c9ab3	0.9867355
75	0x3fb03c05	1.3768317
76	0x3fbeed2e	1.4916131
77	0x3f57b202	0.84255993
78	0x3f9ee3aa	1.2413228
79	0x3fe08ed3	1.7543586
80	0x3f096f8c	0.5368583
81	0x3fb72263	1.4307369
82	0x3fab608d	1.338884
83	0x3fd437a8	1.6579485
84	0x3fa47abc	1.2849956
85	0x3f9720fe	1.1806943
86	0x3fcbad5c	1.591228
87	0x3fc57ebd	1.5429302
88	0x3fa40394	1.2813592
89	0x3fe4ba15	1.7869288
90	0x3f9e61d2	1.2373602
91	0x3f8ba54d	1.0909821
92	0x3f9c1d75	1.219649
93	0x3faf67c1	1.3703538
94	0x3f9e1ab8	1.2351904
95	0x3f8c2b64	1.0950742
96	0x3fac1b71	1.3445874
97	0x3f941f45	1.1572043
98	0x3fbc41f7	1.4707631
99	0x3fbd7ef7	1.4804372
100	0x3fa26716	1.2687709
101	0x3f821288	1.0161905
102	0x3fb27086	1.394059
103	0x3faf2d16	1.3685634
104	0x3fb6bdf0	1.4276714
105	0x3f76f294	0.96463895
106	0x3fb34a8f	1.4007128
107	0x3f5a8652	0.85361207
108	0x3fdb4437	1.7130193
109	0x3fa7eb1a	1.3118622
110	0x3fb5d7b2	1.420645
111	0x3fe38266	1.777417
112	0x3fc1ecc9	1.5150386
113	0x3fadf42b	1.3590139
114	0x3f9950a2	1.1977732
115	0x3fcc5984	1.5964818
116	0x3fe0670e	1.753145
117	0x3fc24cfe	1.5179746
118	0x3f9ef35e	1.241802
119	0x3f8d952a	1.1061146
120	0x3f94782f	1.1599177
121	0x3fd70edb	1.6801409
122	0x3fcf30ce	1.6186769
123	0x3f9b51ae	1.2134302
124	0x3f817551	1.0113927
125	0x3f514853	0.81750983
126	0x3fb3d80b	1.4050306
127	0x3fb3edd9	1.405696
