backend/marketValuemodel/market_value_predictor.pth (torch, 110954 bytes, 15 tensors)

model.0.weight f4 [186, 39]
00000000: 0141 29bd 989b 853d 767b a83d 1d03 683d
00000010: e79e bd3d 61b9 cd3c 7357 a23c 6d21 cebc
00000020: c06f 4dbe 9048 ebbc 70e5 973e b70d 43bd
00000030: a752 5abd 0052 3fbd 31ff f43d 74cd 3a3e
00000040: 1bb6 543e 8a30 bdbc 6f9d 29bd b9e2 01be
00000050: e0e9 d73d 99af 0b3e 53ce 8a3d faa7 fc3d
00000060: ca73 fcbd 3256 e53c 3a18 4c3e d2d6 39bd
00000070: 147a 12be 4db1 0f3c 213d 073e 6a3c bbbd
00000080: c5aa 34be 462a 19be 70a9 20be 67a6 093d
00000090: 1250 c4b9 72dc 17bd 728f 23bd 2367 1d3b
000000a0: d4b3 993d 48a8 fb3d 4eba 203d 0794 0c3d
000000b0: 2c83 d93c e278 4e3c 4af2 2cbd 6725 0b3e
000000c0: f5c8 b53d f170 0dbe d0ea bbbd 9867 c73d
000000d0: b720 993d 3c00 2e3d 96aa 9ebd 3946 803d
000000e0: 27e1 ec3d 7a22 f33d 7c34 b83d 5067 ab3d
000000f0: 5cb8 553c e3c8 083e 6359 253d 93fe f03c
00000100: 62cc b2bd e962 c9bc da95 223c 3a67 9f3d
00000110: f932 1f3e 256a beba b9bd 06be 713b 1bbe
00000120: 420f 2c3e 25ce 023e ecab 16be 65ea babd
00000130: 5982 29be 1b31 1abd 43fa 433d aa8c 123e
00000140: d9c0 133e 4b5b 1bbd 30e5 a63d 7398 7cbd
00000150: 24c2 48bd d6b7 48bd 9bdd 87bc 1a89 45bc
00000160: bdcb 993c 3bdf 0ebc f8e7 273e ca70 063e
00000170: ee5f fabd 3549 b93d 7dcf 5e3d 6774 04bd
00000180: d312 c5bd 0230 823c 6ee8 443d afe0 07bd
00000190: fb1e 373d 5743 f0bc 574b 2e3e 1b3e e7bd
000001a0: 48ea bd3d d4e8 043e fcda 143e 8671 0f3e
000001b0: 987f 803d ecad 8c3b ab6b f73d c609 3d3d
000001c0: 5c68 71bd 8f58 f33d a0b2 19be 4312 c6bd
000001d0: 423a 83bd 4a2c 2bbe 64a3 053e 9680 993d
000001e0: a97b 723d e133 d1bc 411c cbbc cd75 8b3d
000001f0: 9152 013e 34ac 173d 7c87 ae3d e850 0b3e
00000200: 012f 133e db64 e23d c23b 753d 23fa 403d
00000210: d3b0 7cbc 6ea3 0cbd 9c85 07bd 6727 e8bd
00000220: 3cf0 4abd ffc9 9e3d d753 843c b7a3 b2bb
00000230: 3d52 7bbd 2798 ad3c 8ab8 b4bd 03a5 abbd
00000240: 77f1 203e e4de 8c3d 08bd 0fbe a016 d8bc
00000250: 67fe 0abe d4ce cd3d 0e85 e2bd 8627 143e
00000260: b520 903d 62f3 66bd 9fe0 2ebd 0dc9 013e
00000270: afdb bdbb 3964 533d d19c 45bd cc68 be3c
00000280: 300a c73d 13b9 913c dbac 213e 492c ee3c
00000290: 25d5 9abd 96ca 193e 469c 153e 0b45 aa3c
000002a0: 2273 fd3d cfc6 07be f11f 4bbd 3f05 9abc
000002b0: 3cf1 b3bc 2bf0 563d bdff 6c3d 1998 23be
000002c0: b9a7 6bbb 8b51 a83c f24c 013e c2bb 8f3d
000002d0: e573 10bd 6b4b adbd 83cc a43d 4442 963d
000002e0: c31a 223d 8ff2 debd 9e24 a03d 9f4e 2e3d
000002f0: 4488 99bd aa7e c2ba bd49 9cbd e50c bbbd
00000300: 9313 ffbd f0af bb3d a486 b83d 0842 0dbb
00000310: b69e f7bd 5ecd 9f3d 61ec 06be 4261 643d
00000320: 6c8b 1bbe cd8d bd3d 367e 27be 8a29 233e
00000330: 919f 01be 9486 f3bc d41c 95bd 7a14 5a3d
00000340: 267c 603d 0933 d23c 6af4 423e 6d65 8bbd
00000350: 80ce 6cbd 6f3a e5bd 62bb 9dbc 7c1c f53d
00000360: 53a2 f9bc 24f2 f1bc 9933 5ebd 46e3 07be
00000370: 84a4 f03d 03e7 5b3c bc99 d83c 4846 143e
00000380: b83e c4bd b055 b73d 7b41 883d 999b 59bd
00000390: 5eff 073d 7c4c 223d 12e0 16be c1a5 c7bd
000003a0: a10d d03d c2c6 39be b8cc b0bd 47df 803d
000003b0: a9fb 2cbe 4834 2bbe 8221 8fbd 871b e7bb
000003c0: 0011 b03d 7688 a63b ac0a 473e aa14 17bd
000003d0: efd0 c43c 88b0 3ebd 3048 293d bb95 e43d
000003e0: b38e b43d 622e 0e3e b7b9 cd3d 7ada 8abd
000003f0: 5c46 aebc e06c 153c 0dcd 083e 01d8 05be
-0.04132176 0.06523818 0.08226673 0.056643594 0.09258824 0.02511281 0.01981709 -0.025162423
-0.2006216 -0.028721124 0.29667234 -0.0476205 -0.05330148 -0.04670906 0.119627364 0.18242437
0.20772593 -0.023094434 -0.041409906 -0.12684144 0.10542655 0.13641204 0.067776345 0.123367265
-0.123267725 0.027995203 0.19931117 -0.045370884 -0.14304382 0.008770299 0.13206913 -0.091423824
-0.17643268 -0.14957532 -0.15689635 0.03360596 -0.0003744369 -0.037075467 -0.039931722 0.0024017773
0.075050026 0.122879565 0.039240174 0.034320857 0.026551805 0.012602063 -0.042223252 0.13588487
0.0887622 -0.13812615 -0.09175646 0.09736556 0.07476943 0.042480692 -0.077473804 0.06263394
0.11566382 0.1187181 0.089943856 0.08369315 0.013044443 0.13357882 0.04036845 0.029418265
-0.08730389 -0.024583297 0.009923423 0.07783361 0.15546788 -0.0014527483 -0.13158311 -0.15159394
0.16802695 0.1277395 -0.1471402 -0.091267385 -0.1655363 -0.037644487 0.04784609 0.14311472
0.14429034 -0.03792886 0.08149183 -0.061668824 -0.049013272 -0.049003445 -0.016585162 -0.012056613
0.018773908 -0.0087202145 0.16397083 0.13128963 -0.122253284 0.09047166 0.054397095 -0.032337572
-0.09622731 0.015892033 0.048073225 -0.03317326 0.04470728 -0.029328985 0.17020927 -0.112911426
0.09273201 0.12979442 0.14536661 0.1400815 0.062743366 0.004293194 0.12081083 0.0461519
-0.058937415 0.118821256 -0.15009546 -0.09671452 -0.06407596 -0.16716114 0.1305061 0.07495229
0.059199963 -0.025537433 -0.024793746 0.06809578 0.12629153 0.03702946 0.08521935 0.13605082
0.143734 0.11054393 0.059871443 0.04711355 -0.015423018 -0.034335546 -0.033086404 -0.113356404
-0.04954551 0.077533714 0.01615326 -0.0054516452 -0.061357725 0.021190716 -0.088242605 -0.08381083
0.15717112 0.068784505 -0.14036953 -0.026377976 -0.1357361 0.10049215 -0.110605344 0.14468202
0.07037488 -0.05638445 -0.042694684 0.12674351 -0.0057940106 0.05160925 -0.048245255 0.02324333
0.0971874 0.017788446 0.15788595 0.029073851 -0.07560185 0.15018687 0.14610395 0.020784875
0.123754755 -0.13259433 -0.04959101 -0.01880133 -0.021965615 0.052475136 0.05786108 -0.1597599
-0.0035958125 0.020546695 0.12627009 0.07018234 -0.035266776 -0.084616505 0.0804682 0.07336858
0.039576303 -0.10886108 0.07819484 0.042555448 -0.07496694 -0.0014838774 -0.07631252 -0.09133319
-0.12454905 0.09164417 0.09010056 -0.002155425 -0.120908186 0.078028426 -0.13176109 0.055756815
-0.15189904 0.09255562 -0.1635674 0.15933815 -0.12658526 -0.029727258 -0.07280889 0.053242184
0.054805897 0.025659101 0.19038549 -0.06806455 -0.05781412 -0.11192786 -0.01925439 0.119683236
-0.03047291 -0.029534407 -0.054248426 -0.13270292 0.11750129 0.013421777 0.026440494 0.14479935
-0.09582275 0.089518905 0.066531144 -0.053126905 0.03320252 0.039623722 -0.14733914 -0.09748412
0.101588495 -0.18142226 -0.08632797 0.06292587 -0.16892876 -0.16719162 -0.06988813 -0.007052842
0.085969925 0.0050821854 0.19437665 -0.03688494 0.024025409 -0.046555072 0.04132861 0.11161371
0.0881628 0.13884881 0.10045188 -0.06779952 -0.021273784 0.009120196 0.1335947 -0.1307068

model.0.bias f4 [186]
00000000: a2c4 b73b c584 aa3d 8d08 02be 5444 35bd
00000010: c15c bf3d 47c0 3e3d f341 a23c 828a a63a
00000020: a548 11be 97b4 a23d a80f 94bd e3d3 31bc
00000030: e589 a23d 2761 c1bd 5891 c33a 2e68 85bd
00000040: df8a a13d 1025 4a3c d522 c83d af90 ab3d
00000050: 575a adbd a1b3 c4bd 9b00 733c b4f2 913c
00000060: f657 fb3b c4a9 86bd c08e a9bd 87fb 0fbe
00000070: b8f1 423e d579 09bd 3861 df3c e98f 93bd
00000080: a131 46bd 92d8 a23d 2a6e 73be 8cae ba3c
00000090: 5001 26be 71b9 8c3c 55d2 a6bd 6ece 40bd
000000a0: 052b 8e3d a03d e73b c9f0 013e 5081 66bd
000000b0: d61c 0dbe 311c 3d3c e960 4abd 866f a7bd
000000c0: eacf c6bd 76df 13bd 39cd e03c 9dcb 82bd
000000d0: e43f 22be 9835 0b3e 7ca7 b2bd b1cf ab3d
000000e0: b975 3bbd 0154 67bd 943d b2bc e27d 203d
000000f0: 0b1e 25bd 4a52 573d 0625 a83c eaf5 993d
00000100: 3216 1b3d 5184 633e fe98 46be dbae ef3c
00000110: c652 3abd a043 3f3e 4b4a 9cbc 3f43 aa3e
00000120: 13ff 68be d804 ffbd c268 f23b df6e 7f3d
00000130: a7c9 6abd e899 e1bc 766b c2bd 306a 273e
00000140: ed98 0abe b3be 0e3e 3170 53be eeb8 c4bd
00000150: 2645 99bd 9431 c8bc 49d1 ffbd 9316 0b3e
00000160: c8c8 523b ba50 f43d 415f 56bd ce4b ce3c
00000170: 5bd7 01be e272 833c caa5 c9bd 42ce e43d
00000180: 2d75 e83c b632 613d d8a7 93bd 477c 2ebc
00000190: 6307 a43d 8a56 ddbc 07d9 343e 05bc 96bd
000001a0: 5aff 7e3d b70e 883c 95f7 bdbd a2c4 ab3d
000001b0: 3119 343d dc74 cc3d bed3 16be d262 e8bd
000001c0: e933 0fbd a984 3f3d c959 c03d 7d10 22be
000001d0: baa8 49bc c21a 663d 1907 813d 3d0d 0a3e
000001e0: fa77 80bd 22f4 c4bd 4ad6 c93d 9b51 0e3e
000001f0: 6792 833d 6e21 a5be fcb8 483d 0368 0fbe
00000200: dda3 093e 906b 57bd a8ec 25be 7f18 ef3c
00000210: f86b 0ebd 247f c5bd 1237 273d 63ea ce3d
00000220: bbde 243d df34 41be 3caa cbbd 80c1 863d
00000230: 4355 eebd 2e0d 203e a9c0 013d 0630 113e
00000240: a626 9cbe 2e99 943b 4976 563d 8460 ddbd
00000250: aa51 2a3e c50f 09be 06a3 f9bd 3b24 a5bd
00000260: 3904 d03d a9c2 1dbd a63e 31bd 1cc7 46be
00000270: 184e f23d 9e7c 3b3d e6ef b1bc 409c 94be
00000280: 7c00 53be 09be 813d 699c 163b a42a 94bd
00000290: 6d2c adbd 7944 0bbe 3d0c 8a3d 93fc be3d
000002a0: f0c5 ecbd 8d5d 64bd daf9 1fbe 9e08 a8bc
000002b0: 29f1 aabd d492 3bbe f5d3 a13d 9744 90bc
000002c0: a599 193e 108a c13b eda9 ea3d 366c 8dbe
000002d0: 267f ca3d 33b3 3d3e c92a a03d f280 583e
000002e0: 0b71 d93d 416e 40bb
0.0056081573 0.08326105 -0.12698574 -0.044254616 0.09343863 0.04657009 0.019806838 0.0012706073
-0.14187868 0.07944601 -0.07229549 -0.01085374 0.079364575 -0.094423585 0.0014920635 -0.06514011
0.07887816 0.012337938 0.09772269 0.083772056 -0.084644966 -0.09604574 0.014831687 0.017815925
0.007670398 -0.06575349 -0.082791805 -0.14060794 0.19037521 -0.033563454 0.027268037 -0.07205183
-0.048387174 0.07951464 -0.23772493 0.022788309 -0.16211438 0.01717827 -0.081455864 -0.047071867
0.06941799 0.007056907 0.12689508 -0.056275666 -0.13780531 0.011542366 -0.049408827 -0.08175568
-0.09707625 -0.03610178 0.027441608 -0.063864924 -0.15844685 0.13594663 -0.08723351 0.08389223
-0.045766566 -0.056476597 -0.021757878 0.03918255 -0.040311854 0.05256871 0.020525467 0.075176075
0.037862964 0.22218443 -0.193943 0.029258182 -0.045489095 0.1867814 -0.019078394 0.3325443
-0.22753553 -0.12452096 0.007397742 0.062361594 -0.057321217 -0.027539209 -0.09493153 0.16349101
-0.13534899 0.13939933 -0.20648266 -0.09605585 -0.07483892 -0.024437703 -0.1249109 0.1358283
0.0032163132 0.1192946 -0.052336935 0.02518263 -0.12679808 0.016045991 -0.09846075 0.11172153
0.028376186 0.054980002 -0.07209748 -0.010649747 0.080092214 -0.027018804 0.17660914 -0.07360081
0.06225524 0.01660858 -0.09275738 0.08387114 0.043969337 0.09983227 -0.1472921 -0.113469735
-0.034961615 0.046757374 0.09392125 -0.15826602 -0.012308294 0.056177862 0.06300182 0.13481613
-0.06272884 -0.09616877 0.098553255 0.13898318 0.064244084 -0.32252067 0.04900454 -0.14004521
0.13441415 -0.052592814 -0.16203558 0.029186485 -0.034770936 -0.09643391 0.040824004 0.101032995
0.040251475 -0.18867825 -0.09944579 0.06579876 -0.11637356 0.15630028 0.031677876 0.14178476
-0.30498236 0.004534862 0.0523589 -0.108094245 0.16632715 -0.13384922 -0.121892974 -0.08063551
0.101570554 -0.03851572 -0.043272637 -0.19411892 0.118313015 0.04577314 -0.021720838 -0.2902546
-0.20605654 0.063350745 0.0022981411 -0.072346956 -0.08455739 -0.13600339 0.067406155 0.093255185
-0.11561191 -0.05575328 -0.15622655 -0.020511921 -0.08346779 -0.18317729 0.07901756 -0.017610831
0.15000017 0.005906351 0.11458192 -0.2762162 0.09887533 0.1852539 0.078206606 0.21142939
0.10617264 -0.0029362591

model.2.weight f4 [186]
00000000: ad03 733f a66d 713f c12e 753f dc12 7b3f
00000010: 5187 713f 390a 783f c193 763f c66c 803f
00000020: 76e4 663f c193 733f 21cc 793f 9774 883f
00000030: b56b 663f f40d 773f caa5 643f 897b 793f
00000040: 2e22 863f 0506 763f 975e 663f 33eb 643f
00000050: ddfa 883f 8e2b 6e3f d6ff 6e3f 2ba1 793f
00000060: b2b2 833f 4d6d 843f 0789 813f dbdc 793f
00000070: 8eb1 5f3f 4e96 8b3f f032 763f 4a17 603f
00000080: d45c 6d3f 6897 953f 3f05 8f3f 2da9 843f
00000090: c68b 6c3f b7ab 753f a785 703f 97b8 783f
000000a0: f77d 883f 3e7b 683f 1914 7a3f f8ff 603f
000000b0: 5eab 8b3f 26fc 5f3f 2bbc 6b3f dcf9 793f
000000c0: 4ce9 853f 7ef9 753f 68f3 743f 03c3 763f
000000d0: 2dd5 7b3f 639c 693f 0a79 723f 1022 8a3f
000000e0: 349c 6f3f eeef 833f 9200 6e3f 2d88 713f
000000f0: 4d8b 793f cbea 763f df89 783f 08a2 5c3f
00000100: 62a9 703f 9cf8 693f a15d 8b3f d793 783f
00000110: cf6b 8b3f 9406 833f c0bb 733f 24c0 6e3f
00000120: 5266 863f a4fe 633f 88f6 7f3f 5f90 803f
00000130: a695 753f 3864 713f cdbf 7b3f 5a78 723f
00000140: d240 653f ad5d 763f 7d4c 613f 916e 743f
00000150: 09d8 7f3f d675 613f fe21 823f 78a2 633f
00000160: afa4 6f3f 4496 793f e6e2 773f 2ba2 753f
00000170: 5324 703f 508a 653f c3e3 823f 9bdb 673f
00000180: 44a5 693f 06b1 613f f519 673f 2448 743f
00000190: bcbb 633f 98d1 653f 56ab 683f c80b 943f
000001a0: 99f6 823f 7aef 6f3f 755b 8c3f 4a89 833f
000001b0: 864a 773f c72c 663f 8b29 7e3f fe21 733f
000001c0: aeb1 6d3f 9394 733f 8d28 673f 90ea 673f
000001d0: 02c1 823f 7063 7e3f 8f13 773f 97ae 773f
000001e0: e4a2 713f aee4 793f 6c7b 663f b7e8 6f3f
000001f0: c80c 923f c677 843f c9a9 693f 0eca 6f3f
00000200: 901a 6b3f d2b4 933f d580 8a3f 9755 783f
00000210: dcc1 803f 4a87 803f ef29 773f ea30 603f
00000220: d4ec 603f 271d 803f 32b2 643f bbba 873f
00000230: 433b 763f 6e6b 643f f339 643f 8328 833f
00000240: fc2f 873f 0eab 7a3f 4066 673f 07ac 833f
00000250: 508a 693f 820c 823f 34fb 773f 5484 803f
00000260: 189f 693f 1e30 743f b0a3 873f b804 8a3f
00000270: 5105 673f ab15 803f 768b 893f d602 803f
00000280: 341e 903f 9993 783f ba1d 753f 1ad8 733f
00000290: dcd6 623f 439c 713f d9c8 623f 82d1 823f
000002a0: 3ba4 813f 883e 663f 824b 633f b63b 8f3f
000002b0: 4c62 733f 6d18 893f 178b 8f3f c541 773f
000002c0: f8ee 5d3f 21ce 783f 0dce 723f eda2 893f
000002d0: 26b1 763f 93ab 733f 0f9b 853f 9e66 683f
000002e0: eeea 5c3f f108 813f
0.94927484 0.94307935 0.95774466 0.9807565 0.943471 0.968906 0.96319205 1.0033195
0.90192354 0.9514733 0.975771 1.066058 0.900081 0.96505666 0.89315474 0.97454125
1.0479181 0.96102935 0.8998808 0.89421386 1.0701557 0.9303521 0.93359125 0.9751155
1.0288908 1.0345856 1.0119942 0.97602624 0.873803 1.0905244 0.96171474 0.87535536
0.9271977 1.168683 1.1173476 1.0364128 0.9240078 0.9596514 0.9395394 0.9715666
1.0663441 0.9081305 0.97686917 0.8789058 1.0911672 0.87494123 0.92083997 0.9764688
1.0461822 0.9608382 0.9568391 0.96391314 0.98372155 0.9125425 0.9471594 1.0791645
0.9359772 1.0307596 0.9296962 0.9434841 0.9747818 0.96452016 0.97085375 0.8618474
0.9400846 0.9139497 1.0887948 0.97100586 1.0892276 1.0236382 0.9520836 0.93261933
1.0499976 0.89060426 0.9998555 1.0044059 0.9593147 0.94293547 0.9833954 0.9471489
0.8955203 0.9623669 0.88007337 0.9548121 0.9993902 0.8807043 1.0166624 0.8891978
0.9361066 0.9749491 0.96830595 0.95950574 0.93805426 0.89664173 1.0225757 0.90569466
0.912678 0.8816074 0.9027398 0.9542258 0.88958335 0.8977294 0.9088644 1.1566095
1.0231506 0.9372479 1.096541 1.0276272 0.9659809 0.89912075 0.9928214 0.9497374
0.9284924 0.9514858 0.9029625 0.9059229 1.0215151 0.9937048 0.9651422 0.9675078
0.94389176 0.9761456 0.90032077 0.9371447 1.141015 1.0349052 0.91274697 0.93667686
0.91837406 1.1539557 1.0820566 0.970056 1.0059161 1.0041287 0.9654836 0.87574637
0.8786137 1.0008897 0.89334404 1.0603861 0.96184176 0.89226425 0.89150923 1.0246738
1.0561519 0.9791726 0.90390396 1.0286874 0.91226673 1.0160067 0.9686768 1.0040383
0.9125838 0.9538592 1.0596828 1.078269 0.9024249 1.0006613 1.0745685 1.0000865
1.1259217 0.97100216 0.95748484 0.9525162 0.886091 0.9437906 0.8858772 1.0220187
1.0128244 0.89939165 0.8878709 1.1190097 0.95071864 1.0710579 1.1214322 0.9658473
0.8669276 0.9718953 0.9484566 1.0752846 0.9636406 0.95183676 1.0437945 0.9078158
0.86295974 1.0080854

model.2.bias f4 [186]
00000000: c41c 5fbd 2555 d63c bdc9 c33d 0d0b 653d
00000010: b68f 873d 01cb 193c 03f6 b83d 3ca4 013e
00000020: 1202 f53c 1b50 cabd 7461 e63d 3591 813e
00000030: e58d bcbb ff75 213d 8541 8ebc 7127 003e
00000040: ba1f 363d 97c1 4e3d f342 45bd ee82 9db9
00000050: 4ff4 4d3e 5505 c2bd e90d ccbd db69 273d
00000060: 660b 523c 90a6 62bd a7ae 983c 43ba 323d
00000070: 8bbe 933c 355b 093d db22 27be 51d8 97bd
00000080: e56c f7bd bd33 113e 3c02 803d 7a0b 433d
00000090: 0de3 bbbd 3362 723d ae63 ae3a e186 c93d
000000a0: 93fa 6c3e 5165 28bd e857 9a3d 9c23 253d
000000b0: 50af 663e 6eec 3cbd 760f 8bbc d59e de3d
000000c0: 3c76 e63d ccee 473d 2a4f 983d a61a 2d3e
000000d0: 5d2a 5abd 9320 a4bd 444a e63c 170a f93d
000000e0: 7694 b73d 247f 5abd 9c50 82bd 7eb6 673c
000000f0: 282d 5c3d 7901 c1bc 3199 a43c 9079 483a
00000100: 9d1d 6fbd b54a 20bd 0269 5f3b e9c1 8d3d
00000110: 4862 363e 3d2a a03e 973d f93c 45ca cebd
00000120: a024 5c3d eba6 323d 6a15 fe3d 0518 3dbd
00000130: 3cc0 1b3d 9bdc 98bd a954 1fbd d0f8 9e3d
00000140: 405c 873d 4e5a 8e3d 74b0 66bd 0a7a 8b3d
00000150: 11d0 073c 6368 20bd 2e48 8e3d 9f43 71bc
00000160: 891b 633d 3a01 123e 40b6 df3d 853a 853d
00000170: 07d0 5d3d d7db c6bc 582a 48bd 7bc1 debd
00000180: 8f17 fbbd 7617 e1bc 8b80 83bd a301 b93d
00000190: 3460 17be 2a78 1a3d e7ee bfbd 343d ad3d
000001a0: ae98 cd3d 0613 ad3d b551 903e d595 00bd
000001b0: 7414 813d 92da f6bc ffad ed3d 29b2 d3bd
000001c0: 40a6 4abd 5ca1 63bd e954 4b3d 8a09 d2bd
000001d0: 9343 bdbc db87 013e bd99 b53d ba5f 603c
000001e0: 6887 9b3a 9d3f f53c df02 36bd f016 9bba
000001f0: 8451 713e 7f66 b8bd 1ff9 11be 043a 073e
00000200: 1d0e 4b3e f139 6d3e 96d5 393d 01a7 c0bc
00000210: 3c74 103e cce5 bb3d 017a 74bc aa08 3bbc
00000220: 1b30 a0bc b812 2cbd 175d 3d3c 8ac5 ce3d
00000230: c273 8b3b c74a 89bd 67ae dcbd ed2c 453e
00000240: cdf4 79bc c1b1 153d 9cee 08be beb4 913c
00000250: 838e 7f3d e99d 04bc b7a6 2fbd 62ed 82bd
00000260: c102 8c3d 8e0f bdbd 9346 e0bd d34d 0d3d
00000270: 4f15 963d 5a15 033c 9ef9 bb3d 57d7 c3bc
00000280: 0bbe 193d d381 debd 0ac0 e83d 9e00 fb3d
00000290: 9458 843d 8403 ca3d e06a 003c 68ab ec3d
000002a0: 3a7d 693d 8afb c2bc 1703 26be c672 0c3e
000002b0: 413f 103e 7867 b93d e1b0 923e 2da8 9b3d
000002c0: b6d3 043e 832d 113e 6f8d ae3d 841f 38bc
000002d0: 2d44 9d3d c237 bb3d d72e c8bd 8376 cbbd
000002e0: f1ff 84bd c3df 7ebc
-0.054470792 0.026163647 0.09559963 0.055918742 0.066192076 0.009386779 0.09031298 0.12660307
0.029908214 -0.0987856 0.112490565 0.25306097 -0.00575422 0.03941917 -0.017365227 0.12515046
0.04446385 0.05047759 -0.04815955 -0.00030042924 0.20112728 -0.09473673 -0.09963591 0.040872436
0.0128201 -0.055334628 0.018637968 0.043634664 0.018035194 0.033534247 -0.1632189 -0.07414306
-0.12081317 0.14179893 0.06250426 0.047618367 -0.09174166 0.05917568 0.0013304853 0.09840179
0.23142461 -0.041112248 0.07536298 0.040317163 0.22527814 -0.046123914 -0.016975146 0.108701386
0.1125302 0.04881172 0.07436974 0.16904697 -0.053263057 -0.080140255 0.028111584 0.121601276
0.089638636 -0.053343907 -0.06363031 0.014142631 0.053754 -0.023560273 0.020092579 0.0007647509
-0.05837785 -0.039133746 0.003408969 0.06921751 0.17810929 0.31282225 0.030424876 -0.100971736
0.053745866 0.043616217 0.12406428 -0.046165485 0.038025126 -0.07463952 -0.038899098 0.07762301
0.06609392 0.06950818 -0.056320623 0.068103865 0.008289353 -0.03916205 0.06947361 -0.014725595
0.05544618 0.1425828 0.10923433 0.06505302 0.05415347 -0.02427475 -0.048868507 -0.10876747
-0.12260353 -0.027477007 -0.06421002 0.09033515 -0.14782792 0.037712254 -0.09371739 0.08458939
0.10038887 0.08450894 0.28187338 -0.03139289 0.06302729 -0.03013352 0.11605453 -0.10336716
-0.049474955 -0.055573806 0.049641524 -0.10255726 -0.023103511 0.12649481 0.08867214 0.013694698
0.0011865916 0.02993756 -0.04443633 -0.0011832397 0.23566252 -0.090039246 -0.14255188 0.13205725
0.19829603 0.23166634 0.045369707 -0.023517134 0.1410684 0.0917469 -0.014921666 -0.01141564
-0.019554188 -0.04201004 0.011557839 0.10096271 0.0042557428 -0.06703716 -0.10775452 0.19255419
-0.015256119 0.036546472 -0.13372272 0.01778638 0.06239177 -0.008094289 -0.0428836 -0.063929334
0.06836463 -0.092314824 -0.10950961 0.034498047 0.07328283 0.008000696 0.0917847 -0.023906393
0.037534755 -0.10864606 0.113647535 0.12255977 0.064622074 0.09863952 0.007837981 0.11556131
0.05700419 -0.023801584 -0.16212116 0.13715658 0.1408663 0.09052938 0.28650573 0.07600436
0.12971386 0.14177518 0.0852307 -0.011237983 0.07679019 0.09141494 -0.09774559 -0.09934714
-0.064941294 -0.015556279

model.2.running_mean f4 [186]
00000000: 214f af3e 0acc 293b 54eb ec3a b3b7 633b
00000010: 68c3 d33b 6598 9a3a e8ac 103c 6ae7 383c
00000020: 1a68 0e3f 98d1 623a ff5e b73b d6ff 033e
00000030: 36e4 f441 4c3e 083b a27d b73f d132 083f
00000040: 4b64 9b3e 5356 af3b a4aa 5941 b69b a841
00000050: 8c2d 3d3e 84b5 2f3a 8518 2540 a8f5 053f
00000060: e8aa 213e 48e2 7d3e dc96 e43d a85d 783b
00000070: 9290 a83f 624e 783c 94cb f43e 9b3d f541
00000080: 1b14 123f 3a84 9b3c d52d 463d 599f 823c
00000090: dbbf 2a40 fe22 ad3a e1c3 8a3b 2fd8 9e3e
000000a0: f450 d43e c119 8141 43b0 183c e62c c040
000000b0: 5190 b33e 76b1 6140 d49b 1f3f f4e2 363a
000000c0: 911c 313c e33f 933b 75d8 d63b 46e3 1c3a
000000d0: d58e cd3a 201c 2141 0a6a b43b a249 da3c
000000e0: 4ad8 2a3b 4ebe 5b3e bdeb f23e 5dae 153b
000000f0: c4d5 a43a c404 cf3b a091 8c3a e555 9a41
00000100: 17b0 d73e b0d7 813f 1364 7b3d 5de1 803a
00000110: 9a2f e93d e467 ab3e 8ea5 8e39 dd2a 3f3f
00000120: a2e8 063c 24d3 0342 69c3 983b 2085 633e
00000130: d0c6 a03a 6f7e 123a 0cfc 523a fd4e 4f3c
00000140: c4eb 0641 9bf6 103c 2dc1 a43f 86dd 203b
00000150: c5f6 c93a 84ac 6441 48ae e33c 0a00 b53f
00000160: fcaa 283b b359 c73b df19 fb3b 4348 8f3b
00000170: 086b d23a 96f4 2640 e7f8 bb3d 81ce 1641
00000180: 61ab 4241 e194 0641 f8a9 a041 aee5 293f
00000190: 7a70 f741 6d38 8741 d232 0a40 693d 3c3c
000001a0: 2ec0 823c fa82 d23a a217 1e3e c995 903e
000001b0: 068a 123c f8ec a741 1a58 c03a 5cce 5a3b
000001c0: 4e50 203f 8e68 923b 6941 8541 cbdb da40
000001d0: ee37 e33d 2eae 5c3c 41d2 5a3b d241 4f3b
000001e0: 2da2 3d3b 0644 dc3b 2ccb e940 243b b23b
000001f0: 7284 c33d d224 de3d 2875 f33f b9ad 9c3b
00000200: f641 603b 298a b63d b439 e43d 2b0b 993a
00000210: bc8a 223f 08fb 8c3a 10d5 1c3a 9657 8541
00000220: 527d 8441 94a7 263e cea5 6c40 afaf aa3d
00000230: 5652 e83b be76 7b41 a0c1 cc41 bb51 053f
00000240: 41f0 323c c0ac db3b 42fb b241 e8a0 fc3a
00000250: 7a55 6e41 9f21 3a3e 8227 1a3a 9399 1d3e
00000260: 5569 7c3f 03f3 513b d9b8 973e 987e ad3c
00000270: 971a 2341 b616 1f3b 4f54 603c f724 213d
00000280: 58c1 db3d 52c0 5b3e ddaa eb3a ba86 a13b
00000290: d72e 1241 6eba 5e3a 19c9 f73f 2aee 013c
000002a0: 2c4a 823b 4cc5 7c41 2aad a641 2850 043d
000002b0: 4afc b93b ba08 593c 5001 733e 9410 293c
000002c0: cabe 3140 7708 ba3b d7f9 fb3a 7403 123d
000002d0: f9cc 2a3b 5c8a 5b3b 520c 773e b631 813f
000002e0: 2055 8841 61d5 1b3e
0.34240058 0.002590897 0.0018075504 0.0034746944 0.006462503 0.0011794685 0.008830287 0.011285642
0.55627596 0.0008652448 0.005596041 0.12890562 30.611431 0.0020789085 1.4335215 0.5320254
0.30349955 0.005350867 13.60416 21.07603 0.18474406 0.0006702768 2.5796216 0.52327967
0.15787852 0.2479335 0.11161587 0.003789762 1.3169119 0.015155407 0.47811568 30.65508
0.5706193 0.018983949 0.048383553 0.015945124 2.66796 0.0013209281 0.0042347764 0.3102431
0.41468012 16.137575 0.009319368 6.005481 0.35071042 3.5264564 0.6234715 0.00069765677
0.010810033 0.0044937 0.0065565654 0.0005984794 0.0015682826 10.069366 0.005505805 0.026646439
0.002606886 0.21459314 0.4744548 0.0022839524 0.0012575914 0.006317707 0.0010724552 19.29194
0.42126533 1.0143948 0.061374735 0.0009832788 0.113860324 0.334777 0.00027207698 0.7467478
0.008234175 32.956192 0.0046619666 0.22218752 0.0012266282 0.0005588298 0.0008048422 0.01265311
8.43256 0.008847858 1.2871453 0.00245461 0.0015408626 14.292118 0.027793065 1.4140637
0.002573668 0.006083691 0.007662996 0.004372628 0.0016053626 2.6086783 0.09178334 9.425416
12.166841 8.411347 20.082993 0.6636609 30.92992 16.902552 2.1593518 0.011489251
0.015960779 0.0016060763 0.15438703 0.28239277 0.00894404 20.990707 0.0014674694 0.003338716
0.62622535 0.0044680303 16.656939 6.83933 0.11094652 0.013469262 0.0033389481 0.0031624925
0.0028935776 0.006721976 7.3060513 0.005439179 0.09546746 0.10846867 1.9020128 0.0047814515
0.0034219003 0.08913071 0.111438185 0.0011676302 0.6349294 0.0010755965 0.00059826765 16.667767
16.561192 0.16274863 3.69762 0.0833429 0.0070898933 15.71649 25.594543 0.52077836
0.010921539 0.006703943 22.372684 0.0019274028 14.895868 0.18176888 0.0005880521 0.15390615
0.98598224 0.0032035715 0.29633215 0.021178529 10.193992 0.0024275011 0.013691976 0.039341893
0.10730237 0.21460083 0.0017979998 0.0049293907 9.1364355 0.0008496408 1.9358245 0.007930318
0.003976127 15.798168 20.834553 0.032303005 0.005675827 0.0132467095 0.2373097 0.010318894
2.7772698 0.0056772786 0.0019224238 0.035647824 0.0026062115 0.0033499217 0.24125794 1.0093296
17.041565 0.15218116

model.2.running_var f4 [186]
00000000: 1d5f 023e 740d db3a 3d80 933a e431 e53a
00000010: 3f47 963b 177a ec39 8edb ea3b 6f36 ec3b
00000020: 4b72 583e 8346 f839 3395 223b 1837 393d
00000030: 6605 9343 369a a43a 5b03 293f eec5 403e
00000040: e6d9 cf3d c77b 5f3b 7656 6042 e4ab 0b43
00000050: 4d8b 5b3d 6ef7 5b39 1e51 3840 5e13 063e
00000060: 6653 b03d f3cd ea3d ef79 8e3d 1b8c 3a3b
00000070: ee60 0c3f 1f7d ef3b e6e0 353e b49a 9743
00000080: 7e76 e43e 5375 2c3c 6050 a33c be2e 5a3c
00000090: 54cb 3640 3518 ff39 6110 363b 7064 183e
000000a0: bd52 813e 4de9 a442 e2d1 4a3c d936 2d41
000000b0: c8ba 0b3e 61ab 8340 f886 bc3e 691e 6739
000000c0: 7907 073c 03f2 5d3b fc36 a63b 7741 5739
000000d0: 41a9 613a e0e3 f341 eed3 2b3b c56e 3c3c
000000e0: 8877 b63a 4dbb f83d e6e1 483e d137 893a
000000f0: 52cc 443a 24b9 f53b 6ee1 043a 5938 eb42
00000100: e3e6 383e 5c33 d53e dd9d e83c 32e9 5139
00000110: bf0c 173d 702f c23d b387 da38 0ff8 483e
00000120: 8568 4b3b 751d ad43 fb62 183b f7b7 e53d
00000130: ade5 ff39 112d 9039 fb48 e339 972d 4b3c
00000140: 466f c741 f456 433c 9a0d 4f3f 1913 b83a
00000150: 2db0 393a 4094 8142 89db bb3c 9cf7 903f
00000160: 8dc0 d63a 0752 a63b d3d9 d03b ddcc 283b
00000170: 69e1 3c3a 46ca f93f 2946 0a3d 9b27 e941
00000180: c80f 3e42 5da0 b541 edd1 0443 d299 bf3e
00000190: b097 9443 3cd0 b642 272c b63f d415 a13b
000001a0: 9aa8 ff3b 2a2e 6a3a fa61 2f3d b8ec ca3d
000001b0: 40e0 643c 87c7 0843 a0f4 063a 686a 023b
000001c0: 32bf 743e 6447 473b 61d9 b342 ffca 8541
000001d0: 68a9 523d f437 793c 1221 e33a 1a42 f33a
000001e0: 41cd dd3a 22ec 623b b677 8341 2398 723b
000001f0: 80ef 013d 3bbb 323d 7db0 c33f 8a35 9f3b
00000200: aefc 353b 1794 e83c 0d65 673d f967 d439
00000210: a63e 083f 554c 203a 0100 1639 e3e0 b442
00000220: 9268 b042 a066 bc3d bd7d a440 fd7b af3c
00000230: 9f2c 913b 2abd 9a42 c318 5043 7710 1d3e
00000240: 16d2 513b 0107 653b 76fa 1a43 3968 173a
00000250: c36a 8b42 a9dd a63d 9a8f 7d39 aafa b03d
00000260: 3499 b03e a9bc 3f3b b6d7 e53d 62b9 dd3b
00000270: 5935 0242 2085 7d3a 3ed3 db3b 76ab 713c
00000280: ae9f 3d3d fb44 b73d 73a7 303a 8e86 8e3b
00000290: 47da d141 c207 7539 fa04 873f d420 753b
000002a0: aa61 013b 8854 a642 c968 0a43 0df8 663c
000002b0: 908a 9b3b 3224 8b3b 94b3 aa3d 0839 f83b
000002c0: 7e04 3840 6d8b 5b3b dcc7 9e3a 5c07 563c
000002d0: 5739 d43a 9532 d33a d5bb 993d 7012 c33e
000002e0: 4a48 b542 4268 a13d
0.12731595 0.0016712383 0.0011253428 0.0017486182 0.00458613 0.00045104392 0.0071672862 0.0072086374
0.2113735 0.0004735478 0.0024808168 0.045218557 294.04218 0.0012558165 0.66020745 0.18825504
0.10148983 0.0034100877 56.084435 139.67145 0.053599644 0.00020977642 2.879951 0.13093325
0.08609657 0.11465063 0.06956851 0.0028464857 0.548354 0.007308617 0.17761573 303.20862
0.44621652 0.010526019 0.019935787 0.013316808 2.8561602 0.00048655426 0.0027780759 0.14882064
0.25258437 82.455666 0.0123791415 10.825891 0.1364547 4.1146703 0.36821723 0.00022041205
0.008241528 0.0033866174 0.0050724726 0.00020528385 0.00086082896 30.486267 0.002621885 0.011501019
0.0013921121 0.121451 0.19617423 0.0010468905 0.0007507253 0.007498877 0.0005068992 117.610054
0.18056826 0.41640747 0.028395588 0.00020018665 0.03687739 0.09481704 0.00010420326 0.19625877
0.003103764 346.23013 0.0023252356 0.11216729 0.00048808512 0.00027499397 0.0004335119 0.012401006
24.929333 0.011922587 0.8088013 0.0014043777 0.0007083442 64.78955 0.022931831 1.1325564
0.0016384289 0.0050756964 0.006373623 0.0025756874 0.00072052196 1.9514854 0.033758316 29.144339
47.51541 22.703302 132.82002 0.37422043 297.18506 91.40671 1.4232224 0.004915932
0.0078020813 0.00089332706 0.042818047 0.09908432 0.013969481 136.7794 0.00051481463 0.001989985
0.2390106 0.0030407542 89.92457 16.72412 0.05143109 0.015211094 0.0017328581 0.0018559129
0.0016922132 0.003462561 16.433453 0.003701695 0.031722546 0.04363559 1.5288235 0.0048586773
0.0027769017 0.028390927 0.056492854 0.00040513257 0.53220594 0.000611489 0.00014305116 90.43923
88.20424 0.09199262 5.140349 0.021421427 0.004430368 77.36946 208.09673 0.15338312
0.003201609 0.0034946802 154.97836 0.0005775723 69.70852 0.08147747 0.00024181456 0.086415604
0.34491885 0.0029256737 0.11222784 0.006766484 32.552097 0.0009671021 0.0067085316 0.014750352
0.04629486 0.08948704 0.0006738819 0.0043495363 26.23158 0.00023367911 1.0548394 0.00374036
0.001974205 83.1651 138.40932 0.014097226 0.0047467425 0.004246258 0.08335033 0.007575158
2.8752742 0.0033499852 0.0012114006 0.013063278 0.0016191405 0.0016113097 0.07506529 0.38100004
90.64119 0.07881214

model.4.weight f4 [85, 186]
00000000: cad5 bebb bdd8 203d 4d02 e6bd 2a9c 53bd
00000010: c4cf 913d a741 e3bd 5330 2e3d a28a c8bd
00000020: 6c43 953c 2451 0b3c c530 0dbd 3242 57bd
00000030: ed5d 52bd c31f c0bd 0adf 4e3c 10f3 113d
00000040: be63 563b 14d0 63bd 5bfb 36bd fe17 5a3c
00000050: d71d 283d 3033 babd 091e 04bd ca3b 94bb
00000060: 4349 99bc 523d b5bd c1e0 043c 603b 6dbd
00000070: b15b 5e3c 1e5a 1bbe 0f87 09bc f543 913b
00000080: b408 093c 1009 f9bd cf47 d5bd f27b b6bd
00000090: 759e c6bc 2f2b 8fbd 2147 c9bc 9207 efbb
000000a0: 1700 8fbd f262 2fbd 38e6 a5bd cae3 163c
000000b0: ee81 9a3c 61e8 69bd 66ad b0bc 2fc6 9fbd
000000c0: f4a5 a5bd 369d 44bc 6e37 92bd 5a45 4a3c
000000d0: ad1d 11bd f8ba 86bd 3337 aebc f412 fdbd
000000e0: d0da b0bd cf0f 4abd 19e0 c13c e33e b6bc
000000f0: 7e27 333c 59d7 2fbc 113d bdbc 8832 143d
00000100: 9b67 063d 760d 4bbd ff10 e7bd 92e3 edbd
00000110: aae0 1cbd 7fb2 7cbd 2f36 54bd 44f9 39bb
00000120: 1cb0 a7bd a75b d33c 29c6 343d d188 fa3c
00000130: 0634 9abd 9af5 33bd 1c6b b2bb 0548 4fbc
00000140: b700 e2bb c468 7bbc 09c5 bebc 7a8d b9bd
00000150: 12bf 92bd f340 67bd cd20 62bd 98f3 f33c
00000160: d3e1 55bd 17bd 88bd c0a5 7dbd a06b 69bd
00000170: a728 b03c 45e6 c33c 54df b5bd 4663 8cbc
00000180: 0e0e 57bd 99c4 e3bc ce87 2dbd 6942 1ebd
00000190: d127 243d a1eb 993c a52a bb3c 97d4 a3bd
000001a0: 815a 24bd ebaa 983c 160b a33c 58cb 363d
000001b0: 1ad3 92bd a60b aa3b 16e0 803b 827f c5bc
000001c0: bc65 c63c d0c7 703c de66 27bb d549 143c
000001d0: a812 76bc e20f 17ba 7f71 2abc faca ffbb
000001e0: f215 11bd 684a 41bc 51bb 163c 49ec 9abd
000001f0: 20a7 813d a8dc 84bd c104 ebbc f3e6 cdbc
00000200: e79a 06bd 5d6f f8bc 06d8 b0bd 1a7d 45bd
00000210: c516 e5bc e90c 0e3d c5dc 28bd 336e d93c
00000220: 27e3 c73b 5cfc 61bd 1845 c03c 2a6d da3c
00000230: 47ba d2bd 1eac f8bb ed51 ecbb b868 b6bc
00000240: db8a aebd 7b29 67bd 2097 20b8 f098 b73d
00000250: 47d1 85bc ef99 9f3c b8cb 45bd 835e 9cbd
00000260: 0545 1f3d 4a22 14bd c3b0 12bd 3cbe 22bc
00000270: 5a5c 58bd 2354 a7bd 5d5a 863d 4d57 31bc
00000280: 6f7d a7bd d7b7 4abd 1cc5 2abc 65a3 88bd
00000290: 2d7b 0c3d b63a 67bd b581 053d 0478 44bd
000002a0: 314d 05bd 17e0 89bc ede9 52bd df29 7fbe
000002b0: 08c9 4e3d efa8 f0bd de3f 84bd e870 363d
000002c0: 6282 2d3d 1314 02be dca9 2a3d 2013 8bbd
000002d0: 4fce 6abd c140 98bd 340b 54bc 6d9e cebc
000002e0: 2651 76bb 7da3 9bbd eb18 173d 22ec 063d
000002f0: fb82 87bd 4a5c 333d 5d4b 6fbd 176f 1dbd
00000300: a6b1 623d f849 8dbd 8c76 b83c d3e1 793c
00000310: bc9b 0cbd 4af8 a7bb 6a75 fa3b 6d6a 96bd
00000320: e25a 993b ff1a eb3b 609a b5bc 36ab a53c
00000330: e35e 263d 2cab 093d 0a0e d5bd 9e09 fcbc
00000340: aab6 48bc 028b 043d 7f79 8a3d 298a 103d
00000350: 7bd9 503d e405 a5bb e666 b5bc c69d 52bd
00000360: dd9f 5f3c 6a22 12bb 903e a53d 4270 bf3c
00000370: ef39 d5bc 1f8e d83d b8ab 5cbc 21d4 05bd
00000380: b70d 003d 0f21 1cbd cc9f 06bd 4a66 00bc
00000390: a70f 16bc fd19 5fbd 21dd 9e39 bce8 ea3a
000003a0: fcb2 873d 2aa6 49bd 01b9 97bd 2dc6 abbc
000003b0: 7b1c 1fbd 447d 9cbd 3d30 8dbc 5f6e bd3c
000003c0: 794f 903d 3dda 12bd 94e6 e53c eccf 683d
000003d0: 6840 5cbd 3a19 f33c 7383 a13c f1d0 1cbd
000003e0: 9c70 933d 45b4 39bd 62c2 1abc 6455 c3bc
000003f0: bab9 363d 4350 9abd 897c 0fbe 878d a7bd
-0.0058238255 0.039269198 -0.112309076 -0.0516626 0.07119706 -0.110965066 0.042526554 -0.09792067
0.018220626 0.008503232 -0.03447034 -0.052553363 -0.051359106 -0.09381058 0.012626419 0.035632193
0.003271326 -0.05561836 -0.044673305 0.013311384 0.041044082 -0.090917945 -0.032255206 -0.004523729
-0.018711692 -0.088495865 0.008110226 -0.057917953 0.013571666 -0.15171096 -0.008394017 0.00443315
0.008363891 -0.12159932 -0.10414087 -0.089103594 -0.02424548 -0.069906585 -0.02457005 -0.0072946036
-0.06982439 -0.04281897 -0.08100551 0.009209583 0.018860783 -0.05710638 -0.021567058 -0.078014724
-0.08088294 -0.012000373 -0.071394786 0.012345636 -0.03542869 -0.0657863 -0.021266555 -0.12357131
-0.08635485 -0.049331482 0.023666428 -0.022246784 0.010934709 -0.010732495 -0.023100408 0.036181003
0.03281365 -0.049573384 -0.112825386 -0.11615671 -0.038300194 -0.061693665 -0.051809486 -0.0028377334
-0.08187887 0.02580054 0.044134293 0.030582817 -0.07529454 -0.043935396 -0.0054448973 -0.012651448
-0.006897058 -0.015344802 -0.023287313 -0.09060188 -0.0716535 -0.056458425 -0.055207063 0.02977924
-0.052217316 -0.06676691 -0.06192565 -0.056987405 0.02150376 0.023913512 -0.08880487 -0.017137181
-0.052503638 -0.027803706 -0.04236584 -0.038637552 0.040077034 0.018789114 0.022847483 -0.07999533
-0.040125374 0.018636188 0.019902747 0.044627517 -0.07169171 0.005189377 0.003932963 -0.024108652
0.024218433 0.0146960765 -0.0025543491 0.009050806 -0.015019096 -0.00057625596 -0.010403036 -0.007806179
-0.03542132 -0.011797525 0.009199933 -0.07564599 0.06330705 -0.06487399 -0.02868879 -0.02513454
-0.03286257 -0.03032654 -0.08634953 -0.04821501 -0.027964959 0.03468028 -0.041226167 0.026541805
0.0061000767 -0.05517231 0.023470446 0.026663382 -0.10289436 -0.0075888773 -0.0072119148 -0.02226673
-0.08522578 -0.056436043 -3.828772e-05 0.089647174 -0.016335143 0.019482581 -0.048289984 -0.07635214
0.03888418 -0.036165513 -0.035813104 -0.009933051 -0.05282245 -0.08170345 0.06560204 -0.010824037
-0.081782214 -0.04949173 -0.010422971 -0.0667179 0.034297157 -0.056452475 0.0325944 -0.04796602
-0.03254432 -0.016830487 -0.05149262 -0.24918316 0.050484687 -0.117509715 -0.06457494 0.04454127
0.04236067 -0.1270297 0.041665897 -0.06790757 -0.057325657 -0.07434226 -0.012942124 -0.025222028
-0.003758499 -0.07599542 0.036888998 0.032940038 -0.066167794 0.043789186 -0.05842148 -0.03843602
0.0553452 -0.06898874 0.022517465 0.015251595 -0.034328207 -0.005126034 0.0076433914 -0.07344518
0.0046800235 0.007174849 -0.022168338 0.020223241 0.040617835 0.033610508 -0.10403068 -0.030766305
-0.012250582 0.03235913 0.06761455 0.03528801 0.050988656 -0.0050361026 -0.022143792 -0.051419996
0.013648954 -0.0022298344 0.080685735 0.023368958 -0.026028601 0.105739824 -0.013468675 -0.032673005
0.03126308 -0.038117465 -0.032867238 -0.007836888 -0.009159005 -0.054468144 0.00030300862 0.0017922143
0.066259354 -0.049230732 -0.074083336 -0.020968521 -0.03884552 -0.0764108 -0.017234916 0.023123918
0.07046408 -0.03585266 0.02806405 0.056838915 -0.05377236 0.029675115 0.019716 -0.0382852
0.07199213 -0.045337934 -0.009445759 -0.023844428 0.044610716 -0.0753484 -0.1401235 -0.08181291

model.4.bias f4 [85]
00000000: 088b ca3c f8f0 83bd b56b a4bb 1cc3 9e3d
00000010: 2647 65bd 6a00 553d 0bd0 0abc 4652 db3c
00000020: a3f9 0e3d c934 2e3d 1e0c d9bd d80c adbd
00000030: 8785 92bd 4f84 88bd 5e86 d43d 680c cb3d
00000040: 26b4 a6bd f5b8 73bd b295 a0bd 8cc4 9cbc
00000050: bd60 eebc 6d56 9fbd decb 0abe 2079 5fbe
00000060: 08a6 203b 05fc 11be df04 b7bd 9212 d53c
00000070: 93d3 93bb 36cb 1cbe 104c 15be 0f1a 1bbd
00000080: 7d9e c83b 4987 1e3d dbf8 563d d57b 11bd
00000090: af04 c1bd dbd4 77bd 986e 04be 58b5 11be
000000a0: b265 f2bd 09d3 5dbe 63fb 29bd 5ddb cabd
000000b0: 5ca2 0dbd 6fd3 e6bb 5f74 bc3c b2cd 0b3d
000000c0: 0e6f b9bd ba6f 6fbc 33ec 7c3c 6712 b7bd
000000d0: 341b 2ebd 1c91 df3c 800f 71bd ba80 99bd
000000e0: 054e 45be dbc3 293b 701f cebd 130f 49bd
000000f0: d6c4 a43c dc14 0dbe 956a 643d 97e7 b6bd
00000100: b47e 6ebd 1d91 89bd ec71 073d a0b1 adbd
00000110: 3aeb 0d3d 6d68 c13d 365c b43d 3a89 67bd
00000120: a63b 1abd 6bcf 9fbd 5bd6 d0bd 22fa aa3a
00000130: e717 babc 2e21 aabd b377 f5bd 622a 49bd
00000140: cf84 2d3d 3136 a63d b2ae 66bd 8995 883c
00000150: e088 5bbd
0.024724498 -0.064424455 -0.0050177225 0.07752058 -0.055976056 0.052002348 -0.008472453 0.02677263
0.03490604 0.04253081 -0.10598014 -0.084497154 -0.071543746 -0.06665861 0.10377191 0.09914476
-0.08139829 -0.05950256 -0.07841052 -0.01913669 -0.029098863 -0.07780156 -0.13554332 -0.2182355
0.0024513025 -0.14256294 -0.08936476 0.026009832 -0.0045113056 -0.15311894 -0.14579797 -0.03786665
0.006122409 0.038703237 0.05248342 -0.035518486 -0.094247214 -0.06050573 -0.12932813 -0.14229333
-0.11835803 -0.21662535 -0.041499507 -0.099051215 -0.034578666 -0.007044248 0.023004709 0.034131713
-0.09054385 -0.01461404 0.015437174 -0.08939057 -0.04250641 0.027290873 -0.058852673 -0.07495256
-0.19268043 0.0025904092 -0.1006459 -0.04908664 0.02011339 -0.13777488 0.055765707 -0.08930891
-0.058226302 -0.06717131 0.03306763 -0.08481145 0.034648158 0.09443746 0.0880665 -0.056527354
-0.03765454 -0.07803234 -0.10197135 0.0013044516 -0.022716476 -0.0830711 -0.119857214 -0.049112685
0.042362984 0.08115805 -0.056318946 0.016672866 -0.05359733

model.6.weight f4 [85]
00000000: 7c07 863f e0ec 843f befc 733f b931 833f
00000010: 089e 843f ed11 803f 5ef2 773f 2353 833f
00000020: 3e7d 7b3f dff5 893f b353 873f deb6 713f
00000030: 56aa 793f d5d5 883f 0250 843f 9647 7c3f
00000040: 21f8 863f 89ee 793f 07d6 7e3f 71e8 823f
00000050: fbe8 7e3f 92f1 763f 70ad 873f c107 8c3f
00000060: 2160 783f d529 823f 90f8 823f a222 8d3f
00000070: b4e1 743f 57c0 7e3f e619 773f cca4 823f
00000080: a31a 803f 1a49 803f f233 763f 6f29 753f
00000090: 9727 7d3f 683d 7f3f fc14 803f 0b49 8f3f
000000a0: 0a8d 833f 6b07 823f 3cd2 773f 72fb 7d3f
000000b0: c453 733f 4ec0 7b3f a8f0 7e3f c135 833f
000000c0: d709 803f 3af9 7d3f 2840 773f dd54 823f
000000d0: b978 7b3f e869 773f 4004 813f bb8c 833f
000000e0: 2f50 833f 79d1 703f 800f 7e3f c249 793f
000000f0: 21ed 7c3f 97d1 7b3f 60c8 7b3f 5a25 763f
00000100: c378 803f ece2 7c3f ee3b 793f f6f6 7c3f
00000110: cd76 793f bfbc 853f 8bf5 783f bcc2 803f
00000120: 8b49 873f 8e0e 8f3f bc99 8a3f 4c29 823f
00000130: 8110 7b3f 3e5e 863f 6eea 813f c20e 833f
00000140: b25f 803f 1a26 773f 706d 793f 4ea1 853f
00000150: 5d64 7e3f
1.0471034 1.0384789 0.9530753 1.0249549 1.0360727 1.000547 0.968542 1.0259746
0.9823798 1.0778159 1.0572418 0.9441966 0.97525537 1.0690256 1.0336916 0.9854673
1.0544473 0.976296 0.9954533 1.0227185 0.9957425 0.9646236 1.0599804 1.0939866
0.9702168 1.0169016 1.0232105 1.1026194 0.95656896 0.9951224 0.9652389 1.0206542
1.0008129 1.0022309 0.9617301 0.9576635 0.98888534 0.99703074 1.0006404 1.1194166
1.0277417 1.0158514 0.9680517 0.992118 0.9504969 0.9834031 0.9958596 1.0250779
1.0003003 0.99208415 0.9658227 1.0182148 0.98231083 0.96645975 1.0079422 1.0277323
1.0258845 0.9406963 0.992424 0.9737817 0.9879933 0.98366684 0.98352623 0.96150744
1.0036854 0.98783755 0.9735707 0.9881433 0.974469 1.0448226 0.9724967 1.0059428
1.0569319 1.1176317 1.0828166 1.0168853 0.9807206 1.049751 1.0149667 1.0238879
1.0029204 0.96542513 0.97432613 1.0439851 0.9937189

model.6.bias f4 [85]
00000000: f481 793e 6e31 d2bc b790 083e 563f 533e
00000010: 350c 563d c14f a53d 758a aabd a8ec 183e
00000020: 9911 febb 10f3 5d3e 4691 473e ec6a fabc
00000030: b768 afbd c615 3c3d ff52 d93d ceca 8a3d
00000040: 2fb8 073e 3e56 bf3c 14aa da3d aa79 ed3d
00000050: 82c1 743b 090f 34bd cc3c be3d 52f3 ec3d
00000060: 52ef 7cbc 10b6 54bd 784a b5bb 6ad8 793e
00000070: 98d8 40bd 8ed0 b23b 0434 cf3b 90b6 d43d
00000080: 70f5 333d bfd5 af3d 60dd 3dbd b14d 89bc
00000090: d071 a1bd 8fac 9b3d 9618 8b3b 21bd 28bc
000000a0: 079c 493e cb94 823d 1d01 ccbd 1985 b0bd
000000b0: efae 173d ea91 b3bd 9ab1 113d 441a 463e
000000c0: 3dce 593c d678 133d 5cc4 1bbd 9c9d 093e
000000d0: 6c16 60bd 795d 813d 8f52 9a3d d39b 393e
000000e0: 95df df3d cb41 8dbb 93dd 37bd da53 533d
000000f0: 193b d33d 82ed 57bc 0f6f babc dd2f 243d
00000100: 3b1d 00be 56d7 573a 6344 c33d 0ced e73c
00000110: d780 583d c095 383e 4307 83bd 5eaf 5fbc
00000120: 783a 093c 902b ce3d d0ad dc3d bb95 343d
00000130: 202e ec3d 6959 0b3e d106 83bd 883e d4bc
00000140: 3458 2d3e 8284 cdbd 9dd2 5bbd ca37 3e3e
00000150: ee93 9cbb
0.2436598 -0.025658336 0.13336454 0.2062963 0.052257735 0.080718525 -0.0832719 0.14934027
-0.0077535626 0.21674752 0.19489011 -0.030568562 -0.08564895 0.045919202 0.106115334 0.06776963
0.13253854 0.023356553 0.10676971 0.11595471 0.0037346785 -0.04395965 0.0928894 0.11569847
-0.015437918 -0.05193144 -0.005532559 0.24398962 -0.04708156 0.0054569906 0.0063233394 0.103863835
0.04393524 0.08585691 -0.046353698 -0.016760679 -0.07883036 0.07601272 0.004244874 -0.010298998
0.19688426 0.06376036 -0.0996115 -0.08619136 0.037032064 -0.08768065 0.035569765 0.19345957
0.0132938 0.03600391 -0.03802906 0.1343903 -0.054708883 0.063166566 0.07535278 0.18125848
0.10931317 -0.0043108216 -0.044889044 0.05159364 0.10314006 -0.013179185 -0.022758035 0.04008471
-0.1251115 0.00082336867 0.09534528 0.028311275 0.052857246 0.18025875 -0.063978694 -0.013652651
0.008375756 0.10066903 0.107753396 0.044088107 0.11532235 0.13608326 -0.063977845 -0.025908723
0.16928178 -0.100350395 -0.053667653 0.1857597 -0.004778377

model.6.running_mean f4 [85]
00000000: f49a 973e 4945 1d3e 4cb7 cb3e f75a 853e
00000010: ff70 893e 7228 983e 7e83 6d3e ffeb a73e
00000020: 7972 403e d5e9 2a3e 8f9f 1b3e a1db 433e
00000030: 1ac9 4f3e 5582 1c3e 9b78 143f 23f7 b53e
00000040: 1d29 213e 6666 9b3e 8b6c b13e b2db 973e
00000050: 626e 8e3e 6e35 643e 71fb 5e3e 0e37 b73d
00000060: 5456 d53e d07e f53d beac 283e bca8 673e
00000070: 0bcc 4f3e 960b 0d3e b960 f63d 8061 993e
00000080: 9cf1 613e c64f c83e a79e 923e b027 ae3e
00000090: 6137 613e c774 033f 794d 5b3e 1214 ea3d
000000a0: 8ac7 3f3e cde8 413e 87c3 0f3e 6a98 6e3e
000000b0: 2ab6 3c3e 0ab4 803e 5ee4 963e 98c6 bb3e
000000c0: f8ab 633e d46d 413e f64c 513e 4882 d83e
000000d0: 3539 f63d 6bde e83e 8935 3a3e 2689 823e
000000e0: 8646 0e3e e00e 933e f125 3f3e c679 393e
000000f0: f27f a63e 387d 3e3e ed27 2d3e e3d5 8b3e
00000100: 0d4b 193e 2123 4d3e 0658 a23e b8cb 6e3e
00000110: 6e0d 803e e22d 083f 4981 813e e3e1 0d3e
00000120: d640 683e 7bfb 8e3e eed7 133e 0c0c b33e
00000130: 8530 b23e c139 c83e 8c90 213e defc 6a3e
00000140: 694e aa3e a45f 993e 2794 0f3e cb67 ee3e
00000150: 32d6 983e
0.29610407 0.15358461 0.39788282 0.26045963 0.26844022 0.29718357 0.23194692 0.32797238
0.18793668 0.16690762 0.15197586 0.1912675 0.20291558 0.15284093 0.5799653 0.35540113
0.1573834 0.3035156 0.34653124 0.29659802 0.2781859 0.22286007 0.21775605 0.08946048
0.41667426 0.11987078 0.16472146 0.22622961 0.2029268 0.13773951 0.12030167 0.299572
0.22064823 0.39123362 0.28636667 0.34014654 0.21993782 0.51350063 0.21416272 0.11429609
0.18728462 0.18936463 0.14039432 0.23300329 0.18428865 0.2513736 0.29471105 0.36674953
0.2223357 0.18889552 0.20439515 0.42286897 0.1202263 0.4548219 0.18184485 0.2549526
0.1389409 0.28722286 0.18666817 0.18112859 0.3251949 0.18602455 0.16909762 0.2731162
0.14970036 0.20032932 0.31707782 0.233199 0.25010246 0.5319501 0.2529395 0.138557
0.22680983 0.2792624 0.1443784 0.3497013 0.34802642 0.39106563 0.15777797 0.22948024
0.33262947 0.2995578 0.1402136 0.46563563 0.29850918

model.6.running_var f4 [85]
00000000: b02c d83d 6b45 f43d e036 863e ed16 c53d
00000010: 0812 0f3e c9ef 833e fb79 393e 409b 2e3e
00000020: 8a6b c23d 1067 653d f394 953d c6ce 3e3e
00000030: 1d01 1d3e 3cab 843d 0419 f23e a877 723e
00000040: 594a ad3d 762d 993e 5993 b93e 7ad0 343e
00000050: 144f 953e fe65 1f3e 20ac 293e d438 263d
00000060: 2e37 a43e 63c3 643d 060b f53d 064b f73d
00000070: ef73 bf3d 3f28 113e b3be 783d 3c55 533e
00000080: 42fa 693e 13c6 673e 8d5b 343e 68f1 063f
00000090: 529d ba3e 993d 013f 166d ad3e c3ff 933d
000000a0: 3b3b b73d f0eb 5d3e 2e0d 5e3d 64dd 0d3e
000000b0: c152 dd3d 0a6c 453e 5b0d e03e 6be0 783e
000000c0: 2e92 4c3e 847e ad3d d43f 343e fe84 d83e
000000d0: c214 7b3d 2339 4f3f 9365 7a3e 6ec3 143e
000000e0: 06ae 0f3e 6e41 383e e043 163e 8da5 003e
000000f0: c57c 1f3e e45a 443e 51ba 9d3d 7ad3 333e
00000100: 778d e03d 882a 3d3e e40b 173e 7522 9e3e
00000110: 62ea 503e 45ad cc3e 9a49 213e 6cb9 d33d
00000120: 01ca 183e 0167 223e 1fb3 8d3d 24b6 643e
00000130: e520 7e3e 3783 773e 202d a53d 6781 4e3e
00000140: d684 333e 7b21 473e bc05 9a3d 2a62 8c3e
00000150: 8cac 523f
0.105553985 0.11927303 0.2621374 0.09623513 0.13971722 0.2576888 0.18112938 0.1705141
0.09493168 0.05600649 0.073038004 0.18633565 0.15332456 0.06477973 0.4728471 0.23678458
0.08461446 0.29917496 0.3624523 0.17657652 0.29161894 0.1556625 0.16569567 0.04058154
0.3207335 0.055850398 0.11964993 0.120748565 0.093482845 0.14175509 0.06072874 0.20637983
0.22849372 0.22634153 0.17613049 0.52712107 0.3644815 0.50484616 0.33872288 0.07226517
0.08946844 0.21672034 0.054211788 0.13853985 0.108068 0.19279495 0.4376019 0.24304359
0.19977638 0.084713966 0.17602473 0.42288965 0.061299093 0.8094656 0.2445281 0.14527676
0.14031228 0.1799371 0.1467433 0.12563153 0.1557494 0.19175297 0.07701553 0.1756114
0.10964482 0.18473256 0.1475063 0.30885664 0.2040191 0.39975944 0.15750733 0.10338101
0.14920808 0.15859605 0.0691893 0.22335106 0.24817236 0.24171148 0.080652475 0.2016655
0.17531142 0.19446366 0.07520625 0.27418643 0.82294536
